Model/Savings/model_dict.pt (torch, 168623 bytes, 8 tensors)

fc1.weight f4 [100, 257]
000000 a9 61 02 bd 93 44 f9 3c 00 10 73 bc f0 66 a3 3d
       -0.031831417 0.030428207 -0.014835358 0.07978618
000010 67 66 b5 3d dd 87 58 3e 72 df 01 3e 16 cb 4b 3d
       0.08857422 0.21145578 0.12682894 0.049754225
000020 da 29 56 bd 08 29 05 be 61 52 ab 3d 7c 04 fe bd
       -0.052286007 -0.13003933 0.08365322 -0.12403199
000030 8b 41 9e bd 81 92 76 bd 8c 15 9a bd b2 2c 2c bd
       -0.07727345 -0.06019831 -0.07523641 -0.042034812
000040 f1 ee d0 bb 20 67 66 3d 3e 8a 09 bd 66 a5 f0 bc
       -0.0063761403 0.05625069 -0.033579104 -0.029375743
000050 9c e5 c0 3c c1 66 c6 bd f3 5c 41 3d ec ed b4 3b
       0.023546986 -0.096875675 0.047207784 0.0055215266
000060 3c db 7d 3c c8 ca f7 bc 62 0a 27 3d 7b 24 ac bd
       0.015494164 -0.03024806 0.040781386 -0.084053956
000070 20 a0 d4 3b 7f e1 ff bd 33 3a 2c 3d ba ae f2 bd
       0.006488815 -0.12494182 0.04204769 -0.11849733
000080 c4 8a 28 3d 34 0b 69 3d 5f a7 e5 bd 4d cc b6 3d
       0.041147962 0.05689545 -0.11213564 0.08925686
000090 69 a7 09 3d 0c c8 c0 bd 16 31 40 bd 5f a2 ec 3d
       0.03360692 -0.09413156 -0.046921812 0.11554407
0000a0 85 1f cd bd 71 4c 08 3e ab 4d 5d bd 79 a5 8b 3d
       -0.100157775 0.1331041 -0.054029148 0.06818671
0000b0 db 38 b1 bd ec 1f 0a 3e f8 6f 17 3d c6 7d a6 3d
       -0.086534224 0.1348874 0.036972016 0.08129458
0000c0 ff 44 a5 bb a0 e6 2b bd 2c 7a c1 3d 36 88 4b 3b
       -0.0050436254 -0.041967988 0.094471306 0.003105653
0000d0 55 61 49 3d 22 23 87 3d e2 e7 55 3d f1 25 9e bd
       0.04916509 0.06598498 0.052223094 -0.077220805
0000e0 f9 94 a9 bd d4 5c ae bd 6a 9b 3a bd 92 97 9a 3d
       -0.082803674 -0.08513799 -0.04555837 0.07548441
0000f0 7b 3e 1d 3e de f3 76 bd c3 14 c8 bc bb dc 95 bd
       0.15355866 -0.060291164 -0.024423962 -0.073174916
000100 9d 3d c7 3c 3f ba 78 bd 72 a4 b5 3d cd 66 d3 3c
       0.024321372 -0.060724493 0.08869256 0.025805855
000110 6c be a4 3d 0a 5b e4 3d af 81 77 bb 4e 23 ca 3d
       0.080441326 0.11150177 -0.0037766506 0.09870015
000120 2e a4 b6 3d 2c 56 e3 3d 81 a3 46 bd 78 a0 61 bd
       0.089180335 0.1110042 -0.048495773 -0.055084676
000130 69 51 8a bd 22 83 cc bc 03 65 8b 3d e5 ee 08 3e
       -0.06753809 -0.024964873 0.06806376 0.13372381
000140 5b 53 de 3c b3 11 a3 3c a6 c4 87 3d a2 ed 6f bd
       0.027139356 0.0199059 0.066293046 -0.058576234
000150 ad f2 5f bd 48 cb 21 3d cd 28 75 bd 46 cf 80 3d
       -0.054674793 0.039500505 -0.059853364 0.06289534
000160 61 6c ab bd f9 cd b7 3d e2 a1 9b bd 6c 28 d5 3c
       -0.08370281 0.08974833 -0.07599236 0.026020251
000170 fa 38 88 bc a7 0d c4 3d 8f b2 db 3d a3 c1 cd bb
       -0.016628731 0.095729165 0.10727417 -0.006279187
000180 1c 85 02 3e f3 e2 ed bc 28 30 9f bd 9d 6d 93 3b
       0.1274609 -0.029038882 -0.07772857 0.004499151
000190 55 75 9d 3d 65 b0 d2 3d 50 74 1c 3c 8b 70 fa ba
       0.07688395 0.10287551 0.009549215 -0.0019107027
0001a0 db 97 ec bc 9b 9a 97 bc 69 90 fd bc 73 d1 da 3d
       -0.028881004 -0.018506339 -0.03095265 0.106844805
0001b0 bd df d9 3b c4 17 85 bd d6 29 c5 bb 38 fa 23 bc
       0.006648986 -0.064986736 -0.00601695 -0.010008387
0001c0 77 47 b9 bd cf 05 64 bd 78 49 31 bd 3c 11 9f 3d
       -0.09046834 -0.055669602 -0.043282956 0.07766959
0001d0 82 93 a4 bd e5 79 fc 3c 51 9b bb 3d 5f fb 39 bd
       -0.080359474 0.030819843 0.09160484 -0.04540574
0001e0 f2 31 af bd 6f 4a 5b 3d df 6a c2 3c 81 00 c0 3d
       -0.08554448 0.053537782 0.0237326 0.09375096
0001f0 7d 0d 5f bd 41 95 c4 bb 31 cb cd bd 6d 5c f2 bc
       -0.054456223 -0.0059992378 -0.10048521 -0.029585088
000200 a0 a5 9d bd 9f 60 9e 3d c1 e1 aa 3d f3 3b 68 3d
       -0.07697606 0.07733273 0.083438404 0.056697797
000210 28 d4 57 3d 89 d0 97 bd 54 27 c5 bd 6f 11 a8 3c
       0.052692562 -0.07412822 -0.09626642 0.020516125
000220 65 1c a4 3d e9 c6 86 3d fe a2 76 3c 27 b3 89 b9
       0.08013228 0.06580908 0.015053509 -0.00026264155
000230 f3 08 bc 3d 8a f8 a4 bc b4 0a fd 3c 57 ef 94 3d
       0.091813944 -0.020138044 0.030888893 0.07272213
000240 73 73 a1 3d b5 0a 93 3d 12 f6 37 bd 92 0f 12 3d
       0.07883348 0.071797766 -0.044912405 0.03565938
000250 fd d8 06 3e 5a 04 84 3d 52 8d c9 bc dd 96 d3 bd
       0.13168712 0.064461425 -0.02460352 -0.10331509
000260 ff e1 d9 bd 87 c5 d3 bd 3e f5 8b bd 48 5d 17 3d
       -0.106388085 -0.1034041 -0.068338856 0.036954194
000270 29 88 ad bd ba 43 d6 3c 83 06 a7 bb 66 4e 81 3d
       -0.08473236 0.026155341 -0.005097212 0.063137814
000280 e4 9e 64 bc 4b a4 b5 3d 09 5c 4c bd 41 cc fc bb
       -0.013953898 0.08869227 -0.04989246 -0.0077147787
000290 18 92 c7 3d 29 07 89 3d 57 11 c2 bd fa cb 1e bc
       0.09744662 0.06690819 -0.094759636 -0.0096921865
0002a0 cd da 92 3d 06 bd 27 3c ee f9 db 3c 51 4a 9d 3d
       0.07170639 0.010237938 0.026852574 0.0768019
0002b0 a2 06 89 3d 09 82 57 3d f8 28 ea 3d f2 61 5d bd
       0.06690718 0.052614246 0.114335954 -0.054048486
0002c0 e5 18 ca 3c 4a 1a 94 3d e1 b0 52 bd 30 3d 92 3d
       0.024670074 0.07231577 -0.051438216 0.07140577
0002d0 d4 bb 06 bc 45 72 94 3d fb 55 f7 3c ed 8f e9 bc
       -0.008223493 0.07248358 0.030192366 -0.028511012
0002e0 c1 af 12 3d 90 7e 79 bc e5 b2 0b 3d e6 b8 c9 bd
       0.035812143 -0.015227929 0.034106154 -0.0984972
0002f0 fd d5 80 bd 5f 86 35 bd dd 57 75 bd 4f 07 a2 bd
       -0.06290815 -0.0443176 -0.059898246 -0.0791155
000300 66 37 64 bd 28 61 87 bd 52 3f a0 bd 16 bd d2 3d
       -0.055716895 -0.06610328 -0.078245774 0.102899715
000310 33 36 df 3d fc b1 0a bd 72 d1 96 3d 49 5d 74 3d
       0.108990096 -0.033861145 0.07364167 0.059659276
000320 67 d2 70 bd 3f cc d7 3c 69 ff e9 bb 1e fc 9e bd
       -0.058794405 0.02634251 -0.007141043 -0.07762931
000330 97 c9 88 bc 4c 19 64 3d 39 ec 0e 3c d7 82 a9 3d
       -0.016697688 0.055688187 0.008723312 0.08276909
000340 2f fc a0 3d a8 04 e1 bc ab ae 46 bc ac 44 34 bd
       0.078606 -0.02746804 -0.012126605 -0.044010803
000350 5a 7c c5 bd 81 b8 77 bd d0 3f 19 bc 33 82 ea 3d
       -0.09642859 -0.06047869 -0.009353593 0.11450615
000360 a5 1a 3d 3d ab 64 d6 bd fe bc b2 3d f9 80 ea 3d
       0.04616799 -0.1046842 0.08727454 0.11450381
000370 21 5f bc bd 9f fa 86 bb a8 b2 a4 bd 88 68 47 bd
       -0.09197832 -0.004119232 -0.080418885 -0.048683673
000380 f2 b8 35 bd 80 5e ce 3d f4 00 ef 3d ab 51 fd bc
       -0.04436583 0.10076618 0.11670104 -0.030922731
000390 55 f5 d6 3d f2 db 3c bd 03 9e f1 3b 23 73 f6 37
       0.10496012 -0.046108194 0.007373573 2.93791e-05
0003a0 4a 35 aa bd 0e 74 24 3d 1a c6 0e 3d 10 3e bb 3d
       -0.08310945 0.04014974 0.034856893 0.09142697
0003b0 1d e7 6e bd aa e6 21 3d ae 7e f3 3b 32 48 ab bc
       -0.058325876 0.03952662 0.007430873 -0.020908449
0003c0 c9 1a 6b bd ab f9 2e bd 36 60 f4 3b 53 3d b6 3c
       -0.05739859 -0.04271857 0.0074577583 0.022246039
0003d0 a7 15 fb 3d 4b 9a e0 3c f7 01 c7 bd 9d 13 d5 bc
       0.12259989 0.027417323 -0.09717172 -0.026010329
0003e0 65 a3 2a bd 9e 68 a8 3d 49 02 4b 3c f6 d1 90 bd
       -0.04165973 0.08223079 0.012390682 -0.07071297
0003f0 5a b8 6d bc e1 cb df bd 09 44 92 3d 20 b1 ad bc
       -0.014509285 -0.10927559 0.07141883 -0.021202624

fc1.bias f4 [100]
000000 28 cd c6 ba 32 d6 1a 3d 00 4c 0f 3c 8b 2e fb bc
       -0.0015167342 0.03780193 0.008746147 -0.030661842
000010 bd fa 1d bd 0d b9 b1 bb 8c 3a 12 bb 2a 52 a9 bb
       -0.0385692 -0.005423671 -0.0022312729 -0.0051672654
000020 e1 c1 28 bb c6 79 97 bc 45 af d0 bc ca 10 3f bd
       -0.0025750326 -0.018490683 -0.0254742 -0.04664687
000030 fb 28 1d bb 92 d1 df bc aa 81 2e 3d bf 4a 11 3b
       -0.0023980725 -0.02732161 0.042604126 0.0022169796
000040 a0 32 5c 3c ab c1 fb 3b 58 9a fa bb 67 a5 29 bd
       0.013439804 0.007682999 -0.0076477937 -0.041417506
000050 74 7e 83 bc 5b 75 f5 3c eb f7 21 bd 56 57 64 bd
       -0.016051508 0.029963186 -0.039543074 -0.055747353
000060 96 09 b5 3c 1e a9 6a 3b bb 5e 41 3d ec c5 7d bb
       0.022099297 0.0035806368 0.047209483 -0.0038722707
000070 78 5d 08 ba dc d2 63 bd 48 f0 5d bd 07 7f 00 3d
       -0.0005201916 -0.055621013 -0.05418423 0.031371143
000080 06 74 39 bc cb fb bf 3b c9 48 d8 bb 45 9a 27 bd
       -0.011319166 0.0058588735 -0.0066004735 -0.040918607
000090 12 6b bf bc c0 fd 80 bd 4f a4 06 3d 76 0f 8d bc
       -0.023366485 -0.06298399 0.03287154 -0.017219286
0000a0 12 44 1c bd 59 9e ec bc d3 a5 5e bd be ee 75 bb
       -0.038150854 -0.0288841 -0.05435736 -0.0037526335
0000b0 7e 44 69 3c ca 26 ac 3c da 88 00 bd af 9f 29 bd
       0.014237521 0.02101459 -0.03138051 -0.04141205
0000c0 5e 85 a9 bb e0 1f f4 3c 84 74 05 bd 24 11 c3 bc
       -0.0051733693 0.029800355 -0.03258182 -0.023811884
0000d0 60 44 d5 39 ea 3f b6 3c 4e 91 6c 3d 85 0e f3 bc
       0.0004067747 0.022247273 0.05775576 -0.02967001
0000e0 ba 6b 30 bc 3c ee 09 3d 44 c9 b8 bc ad 7c 5d 3d
       -0.0107678715 0.033674464 -0.022556908 0.05407398
0000f0 3f 10 6f bd 30 58 77 bd 3b ec a4 bc 4f 73 63 bd
       -0.058365103 -0.060386837 -0.020132175 -0.05552989
000100 6c 3a 44 bd 3f 91 0f 3d 46 59 6d 3c 22 b5 86 3d
       -0.047907278 0.035050627 0.0144866165 0.06577517
000110 34 6f e3 bc 11 90 b2 bc 2a 19 41 bd fe d3 8e bd
       -0.027762987 -0.021797212 -0.04714314 -0.06974028
000120 4d e6 63 3d 33 cb 58 3d 66 6a 75 bd 9a 91 9c 3c
       0.055639554 0.05292816 -0.059915923 0.019112397
000130 90 1c 6e 3d be c2 79 3d bd a1 26 bd 97 69 1b bc
       0.058132708 0.060976736 -0.04068159 -0.009485624
000140 b6 f0 70 bc de c5 fe 3c f2 7a cd bc d5 23 49 bd
       -0.014705827 0.03110021 -0.025083039 -0.049106438
000150 3d b6 a6 bc ab 02 6b bd 6b 42 78 3b d1 a2 39 bd
       -0.02035057 -0.05737559 0.0037881385 -0.04532129
000160 e5 28 90 3a 7b 46 9f bd 2b fa dd 3c dc a4 bd b9
       0.0010998516 -0.07777115 0.027096828 -0.0003617172
000170 23 e1 46 bd 44 99 74 3c ed c8 23 bd 3b ff 1b 3d
       -0.04855455 0.0149291195 -0.03998654 0.038085204
000180 5f f7 7b 3c 8e fe ef 3c 76 a3 f0 3b bf 3e f1 3c
       0.015378802 0.029296186 0.007343705 0.029448865

fc2.weight f4 [50, 100]
000000 17 a5 31 3e 0e 1c a3 3c b1 97 df bc 49 70 a4 3d
       0.17348133 0.019910838 -0.027294012 0.08029229
000010 63 f1 8a bd ae b6 38 be 8f dd b4 bd 7d a7 14 be
       -0.06784322 -0.18038437 -0.088313214 -0.14517017
000020 99 b8 a6 3d e0 c9 34 3d bb cd 4e bd 0b 9b c8 bd
       0.08140678 0.044137836 -0.05048917 -0.09795197
000030 38 de 04 3c a3 44 ea 3d 25 e4 f9 3d 9b 03 c0 bd
       0.008109622 0.11438873 0.12201718 -0.09375688
000040 c5 36 7d be bd ae 0d be 47 3e bb 3d 01 c9 97 3d
       -0.24727924 -0.13836189 0.09142738 0.07411385
000050 5b 49 95 3d 51 f9 7a be 66 cc aa bd de 7b 08 3d
       0.07289382 -0.24509169 -0.08339767 0.033321254
000060 81 6d 59 3d 35 e7 c9 bd 38 a4 cc 3d b4 2e 22 3d
       0.053082947 -0.09858552 0.0999226 0.03959532
000070 ca 1c 04 bd 90 2b a8 bd 5e e3 a3 3c 50 a3 fc 3d
       -0.032254018 -0.08211434 0.020005878 0.12335837
000080 39 a5 53 be 17 55 67 bd 13 c9 ec 3c 12 9d 1d 3d
       -0.20668496 -0.056477632 0.028904473 0.038479872
000090 e4 1d 81 bd 8e 5d 58 3d 9a a5 aa bc ff 89 0f 3e
       -0.06304529 0.052823596 -0.020830918 0.14017485
0000a0 3d db 24 3e 98 41 9b bc 55 e0 35 3d 25 15 23 be
       0.16099258 -0.018952176 0.044403393 -0.15926035
0000b0 cb 9a 18 3b 9d 8c 2e 3e 33 11 05 bd b7 a5 21 be
       0.0023285623 0.17045827 -0.032487106 -0.15785871
0000c0 61 f8 53 3e 6f ce a1 bd 44 ec fc 3b 5f 7c 19 be
       0.20700218 -0.07900702 0.0077185947 -0.1498885
0000d0 b4 5b c4 bc 63 c0 b3 3d e3 d7 87 bc a0 ff 91 3d
       -0.023969509 0.08776929 -0.016582435 0.07128835
0000e0 93 da d2 3d a8 25 4d 3e 4e d2 9c bd c8 e7 c9 bc
       0.10295596 0.20033896 -0.076573 -0.024646655
0000f0 01 4b 46 3e fc 3d 74 3d ad 5e 46 be b1 22 12 3e
       0.19364549 0.059629425 -0.19372053 0.14271046
000100 93 bc 66 bc 4e 96 07 3d 76 1a eb 3b 9b 5b 1a be
       -0.014083046 0.033102326 0.0071747852 -0.15074007
000110 2c 44 32 3c f9 40 d7 3c 37 7c 35 3e 12 77 6b 3e
       0.010880511 0.026276099 0.17723165 0.2299464
000120 e7 fa fe bd 0e 93 b7 3d b4 40 8e 3c ed fd 52 be
       -0.124501996 0.08963595 0.017364837 -0.20604677
000130 07 67 24 3e 7c c1 52 be c0 6f d3 3d a4 19 47 3e
       0.16054927 -0.20581621 0.10324049 0.19443375
000140 d2 25 1e bd 40 ea 9e bc 42 93 29 3d 28 e1 92 bd
       -0.038610287 -0.019398808 0.0414002 -0.071718514
000150 86 6a 27 be 81 6f cb bd f0 35 a6 bd 48 b3 72 bc
       -0.16349229 -0.09933377 -0.081157565 -0.014813252
000160 16 6d cd bd 8a 7e 81 3e 0d 0a ff 3c 3f 86 42 3e
       -0.10030572 0.25291854 0.031132722 0.18996523
000170 6f 83 af 3d 9d f5 66 3c 5c 2c c5 bd d9 46 9a bd
       0.08569991 0.014096645 -0.096276015 -0.07533044
000180 f4 bf 3d 3d 1d 6c a9 bd de 31 5e be 18 28 62 3e
       0.04632564 -0.08272574 -0.2169871 0.22085607
000190 ff 4e d8 bc 30 0a bb 3d 6e 13 2b be 20 56 3d be
       -0.026404856 0.091328025 -0.1670663 -0.18489885
0001a0 a9 d0 15 3d 93 17 ba 3b b5 94 25 bd c8 1a 46 be
       0.036575947 0.00567908 -0.04042502 -0.19346154
0001b0 88 8e 3e 3d ce 27 aa 3d 76 3c da 3d 3f 2d 73 be
       0.046522647 0.083083734 0.10656063 -0.23747729
0001c0 73 f7 79 be 84 36 21 be ec d5 e3 3b 0d 3f 50 be
       -0.244108 -0.15743452 0.0069529917 -0.20336552
0001d0 35 82 a4 bc 3c ac 4a 3d e4 a7 72 3e 61 37 f5 3d
       -0.020081619 0.04948066 0.23696858 0.11973453
0001e0 30 50 e9 3d 40 7e 22 bd 9e 42 06 3e fc 6e 7c 3d
       0.11392248 -0.039671183 0.1311135 0.06162928
0001f0 c3 e1 45 3e ec 3c 31 3e 57 87 f3 bc 4b d1 90 3d
       0.19324403 0.17308396 -0.029727621 0.070711695
000200 98 47 91 bd 47 6f e2 3d d3 83 f8 3c 3b 08 21 3e
       -0.070937335 0.11056381 0.030336296 0.15725796
000210 f5 8f 16 be 06 1f a8 3d 7b c1 7b 3d 25 b6 31 3e
       -0.14703353 0.08209042 0.061463814 0.17354639
000220 cd f2 90 bd 45 f2 cb 3d 67 27 91 bc 3a 34 3d 3e
       -0.070775606 0.099583186 -0.017718984 0.18476954
000230 ff c8 2c be c9 bd a6 bd 08 d2 8c 3e 63 3d 7d be
       -0.16873549 -0.081416674 0.2750399 -0.24730448
000240 09 df 22 be 11 64 ff bb bc 21 85 3e f9 3e 47 be
       -0.15905394 -0.0077939113 0.260023 -0.19457616
000250 7d 7b 74 3e a0 40 b8 bd 92 9b 8c 3d 55 7e 0f be
       0.23875232 -0.08996701 0.0686561 -0.14013036
000260 ca 06 7d bd 86 f7 09 be 51 8d bc bd 27 89 b3 bc
       -0.061774053 -0.13473329 -0.092066415 -0.021915985
000270 1f 07 ec 3d 5f 1c 00 3e 24 ee 01 be 76 02 20 bc
       0.11524796 0.12510823 -0.126885 -0.009766212
000280 65 54 1c 3e 65 94 43 3d 95 39 98 3c f6 ec 9c 3d
       0.15266569 0.047748942 0.018582145 0.07662384
000290 62 0b 7d 3d fe ba 38 be a2 ba 7b be 55 82 bc bd
       0.061778434 -0.18040082 -0.24582914 -0.09204546
0002a0 78 07 17 bd 29 e9 d6 bd 9a 30 b6 3d c9 78 45 3d
       -0.036872357 -0.104936905 0.08895989 0.048210893
0002b0 7c f3 4b 3e 7d eb 1e 3e 65 03 1d be 96 5b 0a be
       0.199171 0.15519519 -0.15333326 -0.135115
0002c0 cc b2 cf 3d 0e d8 4b be 13 63 cf bd 98 bf 69 3e
       0.10141525 -0.19906637 -0.10126319 0.22826993
0002d0 d5 7e 67 3d 4b 1a 56 bd f3 f1 27 bd cc d0 9a 3d
       0.05651744 -0.05227117 -0.041002225 0.07559356
0002e0 1d ae be bd f3 26 81 3d de bd d1 bd 50 47 92 bd
       -0.09310553 0.06306257 -0.102412924 -0.07142508
0002f0 ea 6b 87 be 0d cf c0 3d c8 c6 25 3e 31 c8 69 3e
       -0.2644952 0.09414492 0.1618911 0.22830273
000300 a5 8d bc 3d 59 de 3d bc 9f b6 34 be 09 58 69 be
       0.09206704 -0.011588656 -0.1764779 -0.22787489
000310 63 24 95 bd 24 78 81 bc 91 f9 10 be 40 6e 48 3e
       -0.07282331 -0.015804358 -0.14157702 0.19573307
000320 1f ba 5d be 0b f2 32 3b e9 d1 e8 bd cf 84 ee bd
       -0.21653031 0.0027304913 -0.11368162 -0.11646425
000330 b3 4a 9a 3d b4 03 c9 bd d2 ab 13 3e 74 6e 0f 3d
       0.07533779 -0.098151594 0.14421013 0.035017446
000340 3d aa 88 be 02 18 bb 3d 37 07 54 3d 50 08 98 3e
       -0.26692382 0.091354385 0.051764693 0.29693842
000350 c2 f0 46 3e b6 98 4b 3e 1b 2f f8 bd 47 c1 3e 3d
       0.1942778 0.19882473 -0.1211836 0.046571042
000360 59 5f 54 3e 73 1f ac bc b6 8f 05 3e 9a 06 5a be
       0.20739497 -0.02101109 0.13043103 -0.21291581
000370 af 3b 63 be d8 55 b7 3e a7 2d ff bd 63 98 c8 bd
       -0.22190736 0.3580768 -0.12459879 -0.097946905
000380 65 3d 18 be 5b b9 41 bc ee f1 e8 3d 5b dc 7b bd
       -0.1486717 -0.011823977 0.113742694 -0.061489444
000390 20 76 4d 3e 84 27 51 bb cb 34 34 3e 81 a7 0e be
       0.20064592 -0.0031914422 0.17598264 -0.13931085
0003a0 73 a7 77 3d 18 ca 24 be 6d ff 0e 3e c1 17 07 bd
       0.060462426 -0.16092718 0.13964625 -0.032981638
0003b0 8e 9b 05 3e 5e 61 19 be c5 d3 f3 bd e1 45 ee 3d
       0.1304762 -0.14978549 -0.11905626 0.11634422
0003c0 1c 99 95 bd e0 4f 94 3b 79 55 27 be af 1b 49 3e
       -0.07304594 0.0045261234 -0.16341199 0.19639467
0003d0 28 a3 88 3e 07 d6 61 be 53 a5 95 bd 7c c5 07 3e
       0.26686978 -0.22054301 -0.07306924 0.13258928
0003e0 55 6f 35 be 25 62 b0 ba 8d 0a 29 3b ce 10 cf 3d
       -0.17718251 -0.0013456984 0.0025793642 0.10110627
0003f0 bd a3 eb 3d 46 d6 84 bd 72 06 47 3e 3b ea 14 be
       0.1150584 -0.06486182 0.19436052 -0.14542477

fc2.bias f4 [50]
000000 cf 51 38 bc 53 06 9e 3d ee d7 20 bd c3 b0 59 3d
       -0.011249973 0.0771605 -0.039268427 0.05314709
000010 e7 ff 3f 3d 81 d9 ee 3c 73 b7 c0 bd d4 d5 1a 3d
       0.046874907 0.029156448 -0.0940999 0.03780158
000020 10 82 63 3d 1c 30 98 3d 92 71 83 3d 81 ae 40 3d
       0.05554396 0.07431051 0.06418146 0.04704142
000030 ed dd 2f bc 33 f1 c5 bc 1d 12 17 bb e2 15 89 bd
       -0.010734064 -0.024162864 -0.0023051568 -0.06693627
000040 d3 4d e3 3b 6f 13 18 bd b8 bf 8c bd 97 5b 5e 3c
       0.0069367676 -0.03712791 -0.06872505 0.013571641
000050 ff 55 4d bd b7 ea 86 bd 61 5a e2 3d d9 02 9f 3d
       -0.05013084 -0.06587737 0.11052395 0.07764215
000060 36 9d 8d 3c 80 b5 20 bd d7 88 57 bd 19 5e b0 3c
       0.017286878 -0.039235592 -0.052620735 0.021529244
000070 de 85 c6 bd 91 17 a2 bd 6f d7 d5 3d 8b e7 01 bd
       -0.09693502 -0.07914651 0.10441481 -0.031714957
000080 b7 c4 b2 3d d7 27 40 3d 39 ee 73 3d 5d b4 fa 3d
       0.08728927 0.046912994 0.05955336 0.12241433
000090 1d 96 2a 3d e9 22 ae 3b b3 7e eb bb 4f 61 3c 3d
       0.041647065 0.00531422 -0.0071867346 0.04599124
0000a0 2d a8 6f 3d 9c 59 b8 3d 5e 3b 91 bd a9 1d e8 3c
       0.058509994 0.09001467 -0.070914015 0.028334456
0000b0 18 df ca bc 39 01 ed bd 6f d3 80 3d b3 2c b1 bd
       -0.024764583 -0.11572499 0.06290328 -0.08651104
0000c0 88 8d b1 bd c2 a6 9d bd
       -0.08669573 -0.07697822

fc3.weight f4 [200, 50]
000000 5c 0f 04 be 9e 21 22 3d dc 6a 03 3e b2 ec e7 3d
       -0.12896484 0.03958284 0.12833732 0.11324443
000010 1c 49 a2 3c 57 98 8b bd b0 3c fd bd c7 d0 cb bd
       0.019810252 -0.06816166 -0.12365091 -0.099519305
000020 b2 37 c6 bd df 66 e8 3d cb 0a 9b 3d 22 2c ed 3c
       -0.09678592 0.11347746 0.07570418 0.028951708
000030 15 14 04 be e4 0c d6 3d 65 10 06 bd 69 66 0f be
       -0.12898286 0.104516774 -0.03273048 -0.1400391
000040 96 b7 30 bd d0 55 88 bd 86 07 01 be 67 3d a9 bd
       -0.04314383 -0.066569924 -0.12600526 -0.08263665
000050 e2 6c 8e bd 8e 1b 1c be 4a 11 26 3a 42 af 12 be
       -0.069543615 -0.15244886 0.0006334974 -0.14324668
000060 5c 64 c5 ba a5 b4 1f be 1a 62 44 bd d1 09 ba 3d
       -0.0015059817 -0.15596254 -0.04794512 0.090839036
000070 69 22 c3 3d e4 e1 25 bc a5 5b 6c 3d 29 4f 06 be
       0.095280476 -0.010124657 0.057704587 -0.13116135
000080 20 65 54 3d e6 24 6f ba c8 1a f3 bc 74 2c 89 bd
       0.051854253 -0.0009122625 -0.029675856 -0.06697932
000090 e8 5a cb 3d 6b a3 ef 3d 4c 62 4c be 06 79 ee bd
       0.09929448 0.117010914 -0.19959372 -0.11644177
0000a0 41 b2 b2 3d a2 35 8e 3c 82 c3 ee bd d7 ed ba bc
       0.087254055 0.017359558 -0.11658384 -0.022818489
0000b0 ec 44 43 bd 64 b3 82 3c bd 86 bf 3d 19 d4 3c bd
       -0.04767315 0.01595468 0.09351871 -0.04610071
0000c0 23 a1 77 3c cc c6 30 bd 47 44 9c 3d b3 09 00 be
       0.015114102 -0.043158337 0.0763021 -0.125037
0000d0 b7 b7 81 3d 0a 29 12 3d 24 0f e5 bd 5a 47 6e 3e
       0.06333869 0.03568367 -0.111845285 0.23269406
0000e0 98 30 a1 bd be a6 ae 3d 9c 21 45 3c 32 01 21 3e
       -0.07870597 0.08527897 0.012031939 0.15723112
0000f0 71 e3 ba 3d 09 a0 90 be d4 f3 0f 3e a8 0a 14 bb
       0.09125412 -0.28247097 0.14057857 -0.002258936
000100 a4 d7 58 bc eb de 09 be d4 b8 5a 3c 3a 74 22 3e
       -0.0132350065 -0.13463943 0.0133497305 0.1586465
000110 0f 65 af 3d e2 19 16 bd 31 15 03 bb 63 32 27 bd
       0.08564197 -0.036645778 -0.0020001645 -0.040819537
000120 93 dd e2 3d 80 8e e9 bd 18 f2 de 3d 51 72 ec bd
       0.11077418 -0.11404133 0.108860195 -0.115452416
000130 fa d0 94 3d 76 28 a4 3e 09 3a bb 3d 45 c5 08 be
       0.072664216 0.3206212 0.09141929 -0.13356502
000140 28 7a 84 3e d7 90 cb 3c c0 38 e2 bd 37 10 08 be
       0.25874448 0.024849338 -0.110459805 -0.13287435
000150 7e 88 91 3b 61 ed a9 be 58 da 0c be 44 c8 09 3e
       0.00444132 -0.33188918 -0.13755167 0.13455302
000160 b5 c2 bd be cd 38 6c 3c 84 15 e2 3d fe c2 03 3d
       -0.37062612 0.014417839 0.1103926 0.03216838
000170 6e 83 5d 3c cb 05 6d bc 1d 86 10 3e 8d cb 0f 3d
       0.013520105 -0.014466713 0.1411366 0.03510623
000180 d7 1f 56 bc 0d d4 f6 3b 1e c2 72 be 36 2a 03 be
       -0.013069115 0.0075326026 -0.23706862 -0.12809071
000190 1b ef 11 3e a1 23 43 3e 70 c4 54 be 46 d4 d7 bc
       0.14251368 0.1905656 -0.2077806 -0.026346337
0001a0 e4 02 a9 3d ab 4f 2c be 4b b6 5a 3d 13 5b 4c b9
       0.082525045 -0.16827266 0.053396504 -0.00019488884
0001b0 c3 c0 30 bd 06 a3 a1 bd 28 03 a9 3d 66 41 99 3e
       -0.043152582 -0.078924224 0.08252555 0.29932708
0001c0 65 cb 55 3d cb c6 8e bd ba b5 32 3d ee 52 c5 3d
       0.052195925 -0.069715105 0.04363034 0.09634958
0001d0 3d b7 13 bd b6 26 a3 bd 61 72 2c 3d 6b 0a b8 3d
       -0.03606342 -0.07966368 0.042101268 0.08986362
0001e0 79 55 0a 3d 0a ef 67 3d aa a6 4d be 25 fa a7 3d
       0.03377292 0.05662445 -0.20083109 0.08202008
0001f0 4e f4 12 be 1a c3 64 ba 96 16 75 bd 4c 7e cf be
       -0.14351007 -0.0008726582 -0.059835993 -0.40526044
000200 c8 9d b6 bd 83 f3 c9 bd 6e e2 38 be 0f e1 81 bd
       -0.08916813 -0.09860899 -0.18055126 -0.06341755
000210 89 74 37 3e 06 3b f5 3c 19 3f 1d bc a5 51 ad 3e
       0.17915548 0.029935371 -0.009597563 0.33851352
000220 89 c2 ad 3d d1 f4 e8 bd be 56 c3 3e 99 79 91 3d
       0.0848437 -0.1137482 0.38152117 0.07103271
000230 b2 cc 3e be dc 73 92 be 02 c4 22 3c a8 8d f8 bd
       -0.18632773 -0.2860402 0.009934427 -0.12136394
000240 39 4c b8 3d 9f a7 d2 3c 06 7b 45 3d fa 24 9b bd
       0.08998913 0.025714694 0.048213027 -0.07575412
000250 6a ec 28 3e a0 cf 16 3d ac 51 18 3d 50 35 37 3d
       0.16496435 0.0368191 0.037187263 0.044728577
000260 e2 c2 d4 bd ce 69 69 3d eb 21 0e bc 60 74 ca 3d
       -0.103887334 0.05698567 -0.008675079 0.09885478
000270 ea 06 8a 3d 2f f6 06 bd 7e b3 86 3c 79 07 ee 3d
       0.067396 -0.032949623 0.01644301 0.11622519
000280 92 8d 05 3e fd 2c a4 bd 7a 08 d0 3d 6f 91 a7 3d
       0.13042286 -0.08016393 0.10157867 0.08182036
000290 35 27 e9 bd cc 5e e7 bc 13 99 ca 3d b2 b5 f1 bd
       -0.11384431 -0.028243445 0.09892478 -0.11802234
0002a0 b4 28 1e bd 85 41 b0 bd 31 9e 16 bd 44 f8 b1 bc
       -0.038613036 -0.08606247 -0.036771957 -0.021724828
0002b0 84 a4 7a 3d 9e 97 eb bd 4f 74 8e 3d 35 34 bf bc
       0.06119205 -0.11503528 0.06955778 -0.023340324
0002c0 1a 05 32 3c d4 c1 f6 bc 94 98 15 3d cb f0 88 bc
       0.010865474 -0.030121721 0.036522463 -0.016716382
0002d0 8e 78 c7 3d d9 75 a4 3b 9b d7 be bd 52 75 f8 3d
       0.09739791 0.0050189313 -0.09318467 0.12131752
0002e0 ae c5 ac 3d bb 6e 90 3d d3 e6 60 3d 6d d2 ab 3d
       0.08436142 0.0705237 0.05490763 0.08389745
0002f0 e3 8a 23 3d 1d 50 6e 3c 8a 74 4b bd 83 e8 0f bd
       0.039927375 0.014545468 -0.049671687 -0.03513385
000300 ea f2 0a 3d bd 3b 87 3d 22 13 75 3d d5 1e 0b 3d
       0.033923067 0.06603191 0.0598327 0.03396495
000310 68 2c d7 3d ad b5 35 3d 42 fd ae 3d bc 80 f1 bc
       0.10506517 0.044362713 0.08544399 -0.02948033
000320 6e b8 23 be 8e 4a 05 be 08 6e 61 bd 4f e4 d5 3d
       -0.15988323 -0.13016722 -0.055036575 0.10443937
000330 21 5b 1d be 54 12 36 3e b5 96 e4 3d 10 46 fd 3d
       -0.15366794 0.17780429 0.111615576 0.12366879
000340 58 ee 01 3e 10 f9 26 bd ec 3e a4 3c d2 98 c6 bd
       0.12688577 -0.04076487 0.020049535 -0.09697117
000350 a7 cb a4 3d ba f7 c7 bb 03 0f a7 3d 8e 57 2e 3d
       0.08046656 -0.0061025294 0.0815716 0.042563967
000360 28 a1 36 3d e5 42 ff bc cb 8c ba 3d 9d 19 6f 3d
       0.044587284 -0.031159827 0.091088854 0.058374036
000370 d2 bd 91 bd 97 1d a9 3d 45 2b 7e 3c 8b a9 a2 3d
       -0.071162835 0.08257597 0.015513246 0.07942494
000380 85 fe a5 bb 4c f3 ec bd 24 90 21 bd 17 1a cf 3d
       -0.0050657415 -0.11569843 -0.039444104 0.10112398
000390 8d 0d a9 3d 47 40 67 bd 54 0f b0 3d 7f 22 a9 38
       0.08254538 -0.056457784 0.085966736 8.0649734e-05
0003a0 a2 91 87 bd 3a 81 9b 3d 42 dd 52 3d 6e 65 17 be
       -0.06619574 0.075930074 0.05148054 -0.14784786
0003b0 1c ac 0b bc 9b 5a 3a bd 46 89 55 be 6c 20 e3 bb
       -0.008524921 -0.045496564 -0.20853147 -0.006931355
0003c0 c3 e1 8a bd 11 d9 7c b9 03 2f f6 bd 3e bd 0b be
       -0.06781342 -0.00024113456 -0.120206855 -0.13646409
0003d0 2b f5 e1 3d 28 ff b5 bd ca 27 e7 bd eb 30 85 3d
       0.1103309 -0.08886558 -0.11286886 0.06503471
0003e0 f7 c7 91 3d 3b e2 02 3e de ab 69 3d 74 da c6 3d
       0.071182184 0.12781613 0.05704867 0.097096354
0003f0 c1 26 64 3a 78 77 02 3c 09 7e 8b 3d 3c 62 10 3c
       0.00087032845 0.007963054 0.06811149 0.008812483

fc3.bias f4 [200]
000000 55 9f 9d bc 54 44 c0 bd 46 e5 e6 bd 4d d3 f7 3c
       -0.019241014 -0.093880326 -0.11274199 0.030252123
000010 f6 40 9b bd 65 74 8f 3d a6 c6 14 bd 27 7b 90 3d
       -0.0758075 0.07004622 -0.03632226 0.070547394
000020 09 ad b3 3c 13 6a 9d bd cd 37 7e 3d 55 68 08 be
       0.021933096 -0.07686248 0.062064935 -0.1332105
000030 96 8e 55 bd 33 20 db 3d 43 8d 8e bc 44 9a 25 3d
       -0.052137934 0.10699501 -0.017401343 0.040430322
000040 5c f1 d2 bd c1 d1 f5 bd 58 9a ce bd ff 23 1e 3b
       -0.10299942 -0.12002898 -0.100880325 0.0024130342
000050 5a 98 90 3d e2 dc 29 39 e8 25 94 bd e0 1e 50 3c
       0.07060309 0.00016199381 -0.072337925 0.012702674
000060 12 f3 e9 bd 96 46 ca 3d 82 1d 9e bc 5c fe c0 3d
       -0.11423315 0.098767444 -0.01930118 0.09423515
000070 bf e5 8d 3d 8c c3 43 3d 50 63 d3 3d 16 cb 83 3d
       0.06928586 0.04779391 0.10321677 0.0643522
000080 8b 73 f6 bb c0 bb fb bc 31 cd 00 be d3 71 c4 3d
       -0.007521098 -0.030729175 -0.12578274 0.09592023
000090 29 f8 8c bd 00 d1 b3 bd f1 45 da bd 6f 94 7f 3d
       -0.0688327 -0.08780098 -0.106578715 0.062397417
0000a0 9c a2 62 bd 45 80 cb 3d 99 cb aa bc 5b 43 bc 3c
       -0.055330858 0.09936575 -0.020849036 0.022981336
0000b0 7b cd 0a bd 2e f4 02 be 78 95 de bd fe 53 f9 3d
       -0.033887368 -0.1278846 -0.10868353 0.12174223
0000c0 b6 3e 75 bc 4e d2 8b 3d 27 fa ae 3d d6 df f5 bc
       -0.014968565 0.06827222 0.085438065 -0.03001396
0000d0 c3 bf 8e 3b 20 00 be bd e3 34 ed 3d e5 11 af bd
       0.004356356 -0.092773676 0.11582353 -0.08548335
0000e0 a2 0c 98 bd e7 4e d0 3d b4 d7 5a bc 63 4e 5c bd
       -0.074242845 0.101712994 -0.013357092 -0.053785693
0000f0 14 de b4 3d 01 fe 9b 3d 03 38 e7 3d 88 3f 83 bd
       0.088314205 0.07616807 0.1128998 -0.06408602
000100 20 01 e1 bc 77 94 65 3d 11 aa b9 3c 97 f7 d0 bd
       -0.027466357 0.05604979 0.022664102 -0.10203474
000110 cb 65 16 bd 08 6e d5 3b 0f 64 46 3b 6c 16 19 be
       -0.03671817 0.006513361 0.0030272042 -0.1494996
000120 d7 e0 a7 bd 42 fc b8 bd 7f 32 4b 3d 72 bc 57 bd
       -0.08197182 -0.09032489 0.049608704 -0.05266995
000130 14 29 f5 3d 71 b0 12 3d c0 a3 97 bd 52 f6 b1 3d
       0.11970726 0.0358128 -0.0740428 0.0868956
000140 ee f5 a5 3d 7a 79 c9 bd f6 d1 a1 3a cb fb 0c 3e
       0.08103548 -0.09837623 0.0012345898 0.13767926
000150 58 d4 dd 3d fb dc c5 3d 91 a3 1f 3d 5b 19 10 be
       0.10831517 0.09661289 0.03897435 -0.14072172
000160 b5 c1 c3 3d cf 14 a3 3c d4 a8 ce 3d 62 e4 e7 bd
       0.09558431 0.019907383 0.10090795 -0.113228574
000170 d1 77 db 3d 68 51 0a 3d 3f d8 7e bd 4c 6f 43 3b
       0.107162125 0.03376904 -0.062217947 0.0029820977
000180 c4 7e a6 bd 7b 46 17 3e 1d e8 cf 3b aa 21 84 ba
       -0.081296474 0.1477298 0.0063448087 -0.0010080833
000190 0e 3d c2 3d 3a 9e b5 3d ea de 31 3b 3b 23 d3 bd
       0.094843015 0.0886807 0.0027140924 -0.10309454
0001a0 71 15 91 bc 63 6d 60 bd 40 96 e7 3d d3 6f 83 3d
       -0.01771042 -0.05479182 0.11307955 0.06417813
0001b0 6c 63 ea 3d d6 ef 00 3d c3 9d 02 3e cb 45 9a 3d
       0.114447445 0.031478725 0.12755494 0.07532843
0001c0 e3 d4 e4 3d b3 d1 ef 3d f7 ee 99 3d 46 68 2b bd
       0.111734174 0.11709919 0.07516282 -0.04184749
0001d0 a2 9c 3e bc 40 5e 4b bd 94 d5 f2 3d b1 e1 ed 3d
       -0.011634024 -0.04965043 0.11857143 0.11615313
0001e0 74 42 cc bb 3a 9e 10 3d 61 fc 95 3d c5 6c cd 3c
       -0.006233508 0.035307147 0.07323528 0.02507628
0001f0 9e 91 24 bd b3 f3 cb bd 17 f6 0d be 7b 2e 77 3d
       -0.040177934 -0.09958591 -0.13863407 0.06034706
000200 30 72 40 3d db 1d a8 3c 0e a9 86 bd 6d a3 09 3e
       0.046983898 0.020522049 -0.065752134 0.13441248
000210 8f 1f ce 3d 14 dc 70 3d c3 ad 80 3d 99 ec da 3a
       0.10064613 0.058803633 0.062831424 0.0016702592
000220 d8 44 f4 3c bb 94 59 bc 76 87 c1 3d 02 62 04 3e
       0.029817984 -0.013280089 0.09449665 0.12928012
000230 e9 72 21 3d 38 b2 79 3d ad c6 62 3d 50 23 79 bd
       0.039416227 0.06096098 0.055365253 -0.060824692
000240 4a 99 0e 3d 29 5e bf bc 0f 12 21 be d5 06 80 bb
       0.034814157 -0.023360329 -0.15729545 -0.0039070644
000250 2c e8 da 3c 8c 03 71 bd 67 74 f9 3d ec 78 1b 3d
       0.026722036 -0.058841273 0.12180405 0.037957117
000260 61 58 44 bd 81 d3 dd bd 56 25 89 bc ae f5 b5 3c
       -0.047935847 -0.10831357 -0.016741436 0.022211876
000270 7f 4c 52 3c 45 d6 d4 3d 94 10 79 bd ac 3b b9 3d
       0.012835621 0.10392431 -0.060806826 0.09044585
000280 d6 3e 85 3d 39 c8 3e bd 51 83 5f 3c e1 8e e3 bd
       0.06506126 -0.046577666 0.013642148 -0.11111236
000290 3a 5b bf 3d cc a8 51 3d be f9 93 3d 06 7a fe 3b
       0.09343572 0.051186368 0.07225369 0.007766011
0002a0 0c 8c ac 3d 3e 28 9c 3d f0 6f 07 be 5f 83 37 3c
       0.08425149 0.07624863 -0.13226295 0.011200755
0002b0 4b e0 64 bd f1 83 23 be f3 ac b9 bc 99 aa 7a bd
       -0.055877965 -0.159683 -0.022665476 -0.06119785
0002c0 6c 24 87 3b 4e 97 16 3d d2 56 bf bd 91 1b ae bd
       0.004124215 0.03676539 -0.093427315 -0.085013516
0002d0 ae fb 06 be 91 bd 08 be 3d 7a fc bd 87 c7 3f 3d
       -0.13181946 -0.13353564 -0.123280026 0.046821143
0002e0 19 ae a5 bc 6f ab 59 3d 20 cc a8 3d 7d 93 8f bd
       -0.020224618 0.053142007 0.08242059 -0.07010553
0002f0 aa 33 e3 3d 79 49 71 3d 10 15 a5 3c 26 5f c9 3d
       0.110938385 0.05890796 0.020151645 0.09832601
000300 41 40 1a 3c 78 cf b3 3d 44 30 ab 3d 70 d1 71 3d
       0.009414733 0.08779806 0.08358815 0.059037626
000310 8e 3a 79 3d 3c 1e fb bc 86 e7 05 3d 28 b5 85 bd
       0.060846858 -0.030654065 0.0326915 -0.065286934

fc4.weight f4 [2, 200]
000000 e7 fc 05 be ac f9 12 bf 1b c7 23 3f 25 ca 02 bc
       -0.13084756 -0.5741222 0.63975686 -0.007982765
000010 c2 2b 1f be 93 d2 e1 3d 9e 2f 6d 3e b3 95 27 bc
       -0.15544036 0.11026492 0.23162696 -0.010228562
000020 53 a4 e0 bd a3 7b 73 3e d1 aa f5 3e 81 68 56 bd
       -0.10968842 0.23777632 0.47981885 -0.052345756
000030 99 7e 2e be 74 a7 4e 3e 39 1e 98 3e ce 9b 09 bd
       -0.1704048 0.20181066 0.29710558 -0.033595853
000040 80 e9 7c be d0 00 51 3d d5 37 66 be 7f f3 90 be
       -0.24698448 0.051026165 -0.22482236 -0.28310773
000050 ab c5 d1 bd 96 56 ed bd 47 b9 bd be 9b da cd 3d
       -0.1024278 -0.115887806 -0.37055418 0.10051461
000060 25 43 0a 3f b2 7a 6a 3d c3 2b 84 3e a2 52 1c 3f
       0.54008704 0.057245918 0.25814638 0.6106359
000070 25 c5 a7 3e e0 67 9d bc 11 be 0f be d6 6c bb 3e
       0.32767597 -0.01921457 -0.14037348 0.36606473
000080 97 8a be bd eb 68 05 be 40 f1 fb be e2 cc d7 bd
       -0.09303778 -0.13028304 -0.49207497 -0.10537125
000090 37 53 e0 bd 58 72 05 be 09 45 45 be 37 f9 0b be
       -0.10953372 -0.130319 -0.19264616 -0.13669287
0000a0 e7 96 b2 be 86 0f e7 be 24 30 c1 3c ba e0 f9 3d
       -0.34880754 -0.4512903 0.023582526 0.12201066
0000b0 49 a6 0a 3f c9 65 ce 3d e9 c9 3d 3e ab f2 1c bd
       0.5415998 0.10078008 0.18534054 -0.038317364
0000c0 77 5d f8 bc f0 61 84 bd 41 5f c8 3e 09 4a a2 3c
       -0.030318005 -0.064639926 0.39135173 0.019810693
0000d0 36 3c 3c 3e 3d 94 50 3d a8 93 03 be 35 a9 b5 3e
       0.18382344 0.05092262 -0.12849295 0.35480657
0000e0 58 a3 e8 3e 0b 0b c2 3c b1 54 eb 3d cb 52 cf bd
       0.4543712 0.023686906 0.11490763 -0.101232134
0000f0 ac e2 a9 3e 06 52 05 bf f0 8d f2 bd 18 61 2f be
       0.3318075 -0.5207828 -0.11843479 -0.17126882
000100 23 49 20 3e c8 15 18 bf cc 3c db bd 79 4b bf 3e
       0.156529 -0.59408236 -0.107049555 0.3736227
000110 c7 a3 12 3e 97 f0 d7 be 16 1e 0d bf 0b 67 5d 3e
       0.14320289 -0.42175743 -0.5512403 0.21621339
000120 06 90 a1 be 47 55 8d be 8e 96 ca bd c2 17 a1 3e
       -0.31555194 -0.27604124 -0.09891997 0.31463438
000130 3c d6 a1 3e 58 9f 57 3d 44 9c 92 39 12 40 dd bd
       0.3160876 0.052642196 0.00027963717 -0.10803236
000140 2d fe bb 3d 53 b8 4e be ed db 4f ba 2e fb 1e 3e
       0.091793396 -0.20187502 -0.0007929195 0.15525505
000150 ac 20 65 3e 87 03 1b bf b8 b6 1a bd 35 35 bb 3e
       0.22375745 -0.6055226 -0.03777191 0.3656403
000160 02 5b 10 be a6 fa b3 be 90 b1 82 bd 83 51 36 3f
       -0.14097217 -0.35152167 -0.063815236 0.71218127
000170 3b 8c 0a 3e 18 71 ac bd 79 76 6e be b1 11 d1 3e
       0.13530056 -0.084200084 -0.23287381 0.4083381
000180 d7 ba 1a be 4c 2a aa 3e bf 00 1e 3e 51 ea 2f be
       -0.15110336 0.33235395 0.15429972 -0.17179228
000190 e9 d1 03 bf 84 cc 43 3f d6 de c2 be 48 a8 1e be
       -0.5149217 0.7648394 -0.38060635 -0.15493882
0001a0 13 ed 17 3e 81 91 89 be e5 33 87 3c d5 a5 71 be
       0.1483653 -0.26868823 0.016504237 -0.23598416
0001b0 d8 34 07 bf b4 99 2a 3e 4d 46 60 bd 77 71 23 3f
       -0.5281501 0.16660196 -0.054754544 0.6384501
0001c0 e3 26 c7 be 0c d9 8a be 20 5e ef 3e a7 5d 89 3e
       -0.38896856 -0.2711872 0.467515 0.26829264
0001d0 ae d0 13 be 14 95 3b 3e 90 84 92 be 71 84 a6 3c
       -0.14435074 0.18318588 -0.28616762 0.020326825
0001e0 e0 6b 6f 3e e1 12 a4 3e a5 15 e7 bd 98 0b 3c 3c
       0.23380995 0.32045653 -0.11283425 0.011477374
0001f0 38 8e 2e 3e 51 94 b6 3d e7 17 4e 3d 84 83 21 3e
       0.1704644 0.08915008 0.050315764 0.15772825
000200 25 8c d9 be 78 16 a9 bc d2 46 d1 3b 56 2d 2f be
       -0.42489734 -0.020640597 0.0063866163 -0.17107138
000210 17 da 01 3d 67 29 63 be 99 20 37 3e 21 cf f2 3d
       0.031702127 -0.22183762 0.17883529 0.11855913
000220 e4 34 17 be bb 47 be 3e 0c 6c 14 3e 86 5d 38 3b
       -0.1476627 0.371641 0.14494342 0.0028131916
000230 98 00 64 3e c5 b6 d1 3e c2 27 90 be 76 e5 2f bd
       0.22265851 0.40959755 -0.28155333 -0.04294344
000240 12 89 ca 3d 5c 55 c8 bd 9a af 2c bf 39 e4 d1 be
       0.09889425 -0.09781906 -0.67455447 -0.40994433
000250 56 a1 9d 3e bd 88 a9 3d 90 62 33 be be 07 83 3e
       0.30787152 0.08278034 -0.17518067 0.25591844
000260 03 2a 01 3e 55 83 10 bf 1c a9 a3 3d ec 33 11 bf
       0.12613682 -0.56450397 0.079912394 -0.5671985
000270 14 52 f0 3d cb 96 ef be 49 af 13 3d 1f d5 fc be
       0.11734405 -0.46794733 0.036055837 -0.49381348
000280 44 21 2c 3e 87 49 14 bf f7 c8 bc be 81 45 1a be
       0.16809565 -0.57924694 -0.36872074 -0.15065576
000290 62 99 ea bd f7 0f f5 3d f5 bc 98 3c 40 cb 74 bd
       -0.11455037 0.11965936 0.01864479 -0.059764147
0002a0 d6 a9 33 3e 8a 71 47 3d 26 e5 38 be 21 b7 b7 be
       0.17545256 0.048692264 -0.18056163 -0.35881904
0002b0 da 4f 44 3e 77 24 f8 be ec 37 ad 3e 65 31 d1 3e
       0.19171086 -0.4846532 0.33831728 0.40857998
0002c0 f0 16 27 be 25 5c cd 3e 55 ed b8 bd 69 03 3b 3f
       -0.16317344 0.40109363 -0.090296425 0.7305208
0002d0 bf dd f3 bd da 42 c0 3d 5f ee 98 be be 46 97 be
       -0.11907529 0.09387751 -0.29869363 -0.2954616
0002e0 1c 23 16 3e 90 17 c7 3e a2 cd 82 3d 73 22 9e be
       0.1466183 0.38885164 0.063868776 -0.30885658
0002f0 e8 bf 19 3f cf f0 95 3e 3a 10 e8 bc 4f 5b 85 be
       0.6005845 0.29285285 -0.02832805 -0.26046225
000300 e9 aa b4 be 4c 05 1b bf b3 c5 65 bd dd 90 c7 3e
       -0.35286644 -0.6055496 -0.056096744 0.3897771
000310 03 d6 94 be 39 a4 0e 3f 90 7d 87 3e da c4 4b be
       -0.29069528 0.55719334 0.26462984 -0.19899312
000320 0f 47 2b 3e d4 05 18 3f fc e3 2c bf 02 29 73 3d
       0.16726325 0.59383893 -0.67535377 0.05936528
000330 9d 1e 85 3e 18 f2 8c bd f0 55 4e be b4 de b9 3d
       0.2599992 -0.06882113 -0.2014997 0.090756804
000340 b9 12 f2 3d 6b 54 8d be 54 30 ea be 4d 30 ee bb
       0.11819977 -0.27603468 -0.45739996 -0.0072689415
000350 5d a4 3b 3e 20 bb 2d be d1 24 85 be 32 a0 1e 3a
       0.18324418 -0.16965914 -0.2600465 0.00060510926
000360 f9 77 8e 3e 3a ae a8 bd af d1 30 3e 69 d3 79 3e
       0.27825907 -0.08236356 0.17267488 0.24397053
000370 fb 65 19 3e 2c 26 1f 3e 47 3d d2 3e 19 21 9b bc
       0.14980309 0.15541905 0.41062376 -0.01893668
000380 72 66 0a bf df e0 80 bd 6a de 7a be b7 f3 19 bf
       -0.5406257 -0.06292891 -0.24498907 -0.60137504
000390 ca 03 75 be dd 51 37 3d 89 81 6f 3d 1b 3e a5 be
       -0.23927227 0.044755805 0.058473144 -0.32273945
0003a0 f1 a8 90 3d 8f 2b 7f 3d de 14 ea 3e 1d 79 ff 3d
       0.07063473 0.0622974 0.45719045 0.124742724
0003b0 3f 20 3b 3d 60 fd 27 3e 66 8d 25 3e 6b c4 00 3e
       0.04568505 0.16405249 0.1616722 0.12574928
0003c0 a9 db d1 3e 7d 44 f2 3e 63 90 98 bd fd 84 64 be
       0.409879 0.47317877 -0.074494146 -0.22316356
0003d0 b0 1e 0c bf 27 59 01 be 16 4e 98 be 5a bf 7c 3d
       -0.54734325 -0.12631665 -0.29747075 0.061705925
0003e0 10 3d b2 3d ca c6 3f 3d 1d fa b6 be fb 27 15 3c
       0.08703053 0.04682044 -0.35737696 0.00910377
0003f0 4f 09 5d be 00 93 84 bd 2a e5 44 3e f5 fd e4 be
       -0.21585582 -0.064733505 0.19228044 -0.44725004

fc4.bias f4 [2]
000000 7c 43 38 bc 94 32 3b 3d
       -0.011246558 0.045702532
