Model/Savings/model_dict2.pt (torch, 168623 bytes, 8 tensors)

fc1.weight f4 [100, 257]
0	0xbd05a94a	-0.03263215
1	0x3ce1c664	0.02756042
2	0xbbbd2aee	-0.00577294
3	0x3dbf50a6	0.09341554
4	0x3df517d2	0.11967434
5	0x3e9a1ed0	0.30101633
6	0x3e5e1ddd	0.2169108
7	0x3dd2f794	0.10301128
8	0xbd936ebe	-0.07198857
9	0xbe19fb36	-0.15037236
10	0x3d8e01e5	0.06933955
11	0xbe29da37	-0.16587149
12	0xbde11486	-0.10990243
13	0xbdd2f8c4	-0.103013545
14	0xbdf55daa	-0.119807556
15	0xbd609012	-0.054824896
16	0x3b2b5319	0.002614206
17	0x3d71e8b4	0.059059814
18	0xbd74b810	-0.05974585
19	0xbd85160f	-0.06498348
20	0x3c2c2e78	0.010509126
21	0xbdf49142	-0.11941768
22	0x3ce4bb65	0.027921388
23	0x3c0ff22b	0.008785765
24	0x3c02b439	0.007977539
25	0xbd7f3a18	-0.062311262
26	0x3c8fc759	0.017551111
27	0xbdcd4d57	-0.10024517
28	0x3b990147	0.0046693417
29	0xbe04d933	-0.1297348
30	0x3d3347bc	0.043769583
31	0xbe0072d3	-0.12543802
32	0x3cd5a4b6	0.026079517
33	0x3d4ee00e	0.050506644
34	0xbdf06f2f	-0.117399566
35	0x3daba859	0.08381719
36	0x3cbf892c	0.023380838
37	0xbdc8aa46	-0.09798102
38	0xbd605e87	-0.05477765
39	0x3de81f54	0.113341
40	0xbdc98051	-0.098389275
41	0x3e0dfc20	0.1386571
42	0xbd76914e	-0.060197167
43	0x3d802bb2	0.06258334
44	0xbdb3cf3e	-0.08779763
45	0x3e046ca5	0.1293207
46	0x3d153cbc	0.036434874
47	0x3dba0745	0.09083418
48	0xb9de16c5	-0.00042360104
49	0xbcce06a9	-0.02514966
50	0x3df98611	0.12183774
51	0x3ce68f13	0.028144395
52	0x3d83c657	0.06434315
53	0x3d9b7553	0.07590737
54	0x3d763cbe	0.060116522
55	0xbd923fe9	-0.07141096
56	0xbda46a76	-0.08028118
57	0xbda57bb6	-0.080802366
58	0xbd04b201	-0.03239632
59	0x3dccede3	0.10006311
60	0x3e3324b4	0.1749447
61	0xbd410bb9	-0.04713032
62	0xbc8a559c	-0.016886525
63	0xbd8b96f7	-0.06815904
64	0x3d0006e2	0.031256564
65	0xbd597a5e	-0.053095214
66	0x3dc77416	0.097389385
67	0x3ceb53e0	0.028726518
68	0x3da58d6a	0.08083613
69	0x3de9f42c	0.11423525
70	0x3a15f4b4	0.00057203625
71	0x3dd14212	0.1021768
72	0x3db5b454	0.088722855
73	0x3de428b6	0.111405775
74	0xbd3918a9	-0.045189533
75	0xbd510385	-0.051028747
76	0xbd8190c7	-0.06326442
77	0xbca2811e	-0.019836958
78	0x3d8f1baa	0.069876984
79	0x3e0ae850	0.13565183
80	0x3d01e3d9	0.031711433
81	0x3cde56f4	0.027141072
82	0x3d932c71	0.07186211
83	0xbd63a531	-0.05557746
84	0xbd5471ba	-0.05186627
85	0x3d2db85f	0.042412158
86	0xbd6ec39c	-0.058292016
87	0x3d846cb3	0.06466045
88	0xbda7cc61	-0.08193279
89	0x3dbb6125	0.09149388
90	0xbd9a7fad	-0.075438835
91	0x3cd22be2	0.02565569
92	0xbc81badb	-0.01583617
93	0x3dc60f14	0.09670845
94	0x3de4e55f	0.111765616
95	0xbb14b9b9	-0.0022693707
96	0x3e053cd1	0.13011481
97	0xbceaf95f	-0.028683363
98	0xbd9ec0d5	-0.077516235
99	0x3bb1f8e6	0.0054312823
100	0x3da8523e	0.082188115
101	0x3de71735	0.11283723
102	0x3c93d309	0.018044965
103	0x3b78e3a2	0.0037977477
104	0xbcd1cca2	-0.025610272
105	0xbc75335e	-0.01496586
106	0xbcde537a	-0.027139414
107	0x3ddf60ec	0.10907158
108	0x3c1291d6	0.008945903
109	0xbd8312f7	-0.06400102
110	0xbb9b03f5	-0.0047306963
111	0xbc118fcc	-0.0088843815
112	0xbdb2f871	-0.08738793
113	0xbd58933e	-0.052874796
114	0xbd2ec35a	-0.04266677
115	0x3da246c9	0.079236574
116	0xbd9fe737	-0.078077726
117	0x3d01a3f9	0.031650517
118	0x3dbd08c9	0.09230191
119	0xbd351caf	-0.044216808
120	0xbdac5ce1	-0.08416153
121	0x3d65687e	0.056007855
122	0x3cde3685	0.027125606
123	0x3dc5f9fa	0.0966682
124	0xbd57c9b0	-0.05268258
125	0xbb9e558a	-0.0048319744
126	0xbdcafdf9	-0.09911723
127	0xbce57ae3	-0.028012699
128	0xbd9bee53	-0.07613816
129	0x3da0ecc5	0.0785766
130	0x3dadee50	0.0849272
131	0x3d6a4c84	0.057201877
132	0x3d59516a	0.053056158
133	0xbd96625b	-0.073429786
134	0xbdc4c8ee	-0.09608637
135	0x3ca3edec	0.02001091
136	0x3da3a0d0	0.07989657
137	0x3d865bea	0.065605
138	0x3c6d4753	0.014482337
139	0xbaafbf29	-0.0013408411
140	0x3dbb73e1	0.091529615
141	0xbca24a10	-0.019810706
142	0x3cff5a7e	0.03117108
143	0x3d95f86a	0.07322772
144	0x3da43d96	0.08019559
145	0x3d95b30d	0.07309542
146	0xbd365a32	-0.04451961
147	0x3d120a01	0.03565407
148	0x3e06fe10	0.13182855
149	0x3d8476fb	0.06468006
150	0xbcc5a5d3	-0.024126923
151	0xbdd25491	-0.10270036
152	0xbdd8ebb9	-0.105918355
153	0xbdd32133	-0.103090666
154	0xbd8b533a	-0.068029836
155	0x3d193bd7	0.037410583
156	0xbdac3a2a	-0.084095314
157	0x3cddf288	0.027093187
158	0xbb92cdae	-0.0044800853
159	0x3d82144b	0.06351527
160	0xbc5dbeff	-0.013534307
161	0x3db691b1	0.08914507
162	0xbd4b2000	-0.049591064
163	0xbbf0b2be	-0.0073455265
164	0x3dc872b6	0.097875044
165	0x3d89a3d2	0.06720699
166	0xbdc14c7f	-0.094384186
167	0xbc1c509f	-0.009540706
168	0x3d932274	0.07184306
169	0x3c299ad9	0.01035186
170	0x3cdd8722	0.027041975
171	0x3d9d7ad8	0.07689446
172	0x3d89165a	0.06693716
173	0x3d57da61	0.052698497
174	0x3dea3723	0.11436298
175	0xbd5d104c	-0.05397062
176	0x3ccbb6e5	0.024867484
177	0x3d945626	0.07242994
178	0xbd528e9e	-0.05140554
179	0x3d927540	0.0715127
180	0xbc05264c	-0.0081268065
181	0x3d94a1e7	0.07257443
182	0x3cf77763	0.030208295
183	0xbce9dfdc	-0.028549127
184	0x3d122b99	0.03568611
185	0xbc7a3257	-0.015270791
186	0x3d0bf8cd	0.03417282
187	0xbdc9c65f	-0.098522894
188	0xbd80e23f	-0.06293153
189	0xbd357142	-0.044297464
190	0xbd755016	-0.05989083
191	0xbda20fdf	-0.079131834
192	0xbd6457a0	-0.05574763
193	0xbd875b74	-0.0660924
194	0xbda02c8d	-0.078209974
195	0x3dd2c71e	0.10291885
196	0x3ddf344e	0.10898648
197	0xbd0adf27	-0.03390422
198	0x3d96d9f6	0.073657915
199	0x3d74aee6	0.05973711
200	0xbd70c711	-0.058783595
201	0x3cd884d4	0.026430525
202	0xbbe8099b	-0.007081223
203	0xbd9f0237	-0.07764094
204	0xbc88adf2	-0.016684506
205	0x3d6457b9	0.05574772
206	0x3c0f47db	0.008745159
207	0x3da98191	0.08276666
208	0x3da0f13c	0.07858512
209	0xbce1cd68	-0.027563766
210	0xbc47218a	-0.012153992
211	0xbd344970	-0.044015348
212	0xbdc58a50	-0.09645522
213	0xbd780753	-0.06055386
214	0xbc1b1acb	-0.009466837
215	0x3dea7da0	0.11449742
216	0x3d3d563a	0.04622481
217	0xbdd653c0	-0.10465193
218	0x3db2e2d3	0.087346695
219	0x3deaa449	0.11457116
220	0xbdbc71c0	-0.092013836
221	0xbb858030	-0.004074119
222	0xbda4c89d	-0.080460764
223	0xbd472af7	-0.04862496
224	0xbd360692	-0.04443986
225	0x3dce6043	0.10076954
226	0x3def048e	0.116707906
227	0xbcfd3677	-0.03090976
228	0x3dd713bd	0.10501812
229	0xbd3c7ecc	-0.04601936
230	0x3bf24737	0.0073937434
231	0x38186526	3.6333826e-05
232	0xbdaa4d38	-0.083155096
233	0x3d24773c	0.040152773
234	0x3d0ed07d	0.0348668
235	0x3dbb59be	0.09147976
236	0xbd6eb991	-0.05828244
237	0x3d21cab3	0.03949995
238	0x3bf32912	0.0074206674
239	0xbcab89ac	-0.02093967
240	0xbd6b1085	-0.0573888
241	0xbd2f1b72	-0.042750783
242	0x3bf2b38c	0.0074066576
243	0x3cb62be6	0.02223773
244	0x3dfb1310	0.12259495
245	0x3cdfe264	0.027329631
246	0xbdc70a1d	-0.09718726
247	0xbcd4c8a2	-0.025974575
248	0xbd2ab687	-0.041677978
249	0x3da86942	0.08223201
250	0x3c4bb92e	0.012434287
251	0xbd90bedd	-0.07067654
252	0xbc6d9cba	-0.014502699
253	0xbddfcdef	-0.109279506
254	0x3d9239a7	0.071399026
255	0xbcad6f0f	-0.02117112

fc1.bias f4 [100]
0	0xbd7f15ed	-0.06227677
1	0xbd45474b	-0.048163693
2	0x3c84252e	0.01613101
3	0xbd21bcae	-0.03948658
4	0xbcdd65f5	-0.027026156
5	0xbd07ae28	-0.033125073
6	0x3bc52ae2	0.006017075
7	0x3b838375	0.0040134736
8	0xbd54e179	-0.05197284
9	0xbcd8c034	-0.026458837
10	0xbcd56fae	-0.02605423
11	0x3c12cb5d	0.008959618
12	0x3d635f53	0.05551083
13	0x3d4ea0e7	0.050446417
14	0x3cf553a2	0.029947106
15	0xbcf57aae	-0.029965725
16	0xbcfa8cba	-0.030584682
17	0x3d4e8a13	0.050424647
18	0xbcafcfad	-0.021461332
19	0xbb784acd	-0.0037886382
20	0x3ce44b64	0.02786798
21	0x3d4c2b9b	0.049846273
22	0x3c7a0407	0.015259749
23	0xbc83ebe3	-0.01610369
24	0xbd5d66dd	-0.054053176
25	0xbc4bbb19	-0.012434744
26	0xbd73a7d2	-0.059486218
27	0x3c8471f4	0.016167618
28	0xbd8db6f2	-0.0691966
29	0xbd463a73	-0.048395585
30	0xbd23d83c	-0.04000114
31	0x3cdb974b	0.02680554
32	0x3cbf68d5	0.023365417
33	0x3c07161e	0.008245019
34	0x3d63f216	0.055650793
35	0xbd2fc70c	-0.042914435
36	0x3d254a07	0.0403538
37	0xbc2319b0	-0.009954855
38	0x3ce38f3d	0.027778262
39	0x3d2bfec7	0.04199102
40	0x3ce51c06	0.027967464
41	0xbba6d113	-0.0050908416
42	0xbd40502c	-0.046951458
43	0x3cb4d0c1	0.022072198
44	0x3cad96e3	0.021190112
45	0x3c9826f0	0.018573254
46	0xbc9bcb52	-0.01901785
47	0x3d1dc396	0.038516603
48	0x3d7c4b5a	0.0615953
49	0x3bd01c70	0.0063510463
50	0xbd76dde7	-0.060270216
51	0x3ba07958	0.004897278
52	0x3d0859d3	0.033288788
53	0xbd4257a1	-0.04744685
54	0x3c963cee	0.0183396
55	0xbd308d6d	-0.043103624
56	0x3cc2ae8b	0.02376487
57	0xbd0e94a8	-0.03480974
58	0xbd8d3297	-0.06894415
59	0xbd4bb2d5	-0.049731094
60	0xbc956302	-0.018235687
61	0xbd7711d2	-0.06031973
62	0xbd64b718	-0.055838674
63	0xba96b2c5	-0.0011497369
64	0xbcdc6482	-0.026903395
65	0xbc237d2b	-0.009978573
66	0x3d16a3c4	0.036777273
67	0x3caa1319	0.02076106
68	0xbd12ef87	-0.035872962
69	0xbcb90c43	-0.022588855
70	0x3d01c8a5	0.03168549
71	0xbd1788cd	-0.036995698
72	0xb9e39dde	-0.00043414434
73	0x3d0e9241	0.034807447
74	0x3d166bc7	0.03672388
75	0x3cc0cb60	0.023534477
76	0xbc8b9eb8	-0.017043456
77	0x3ba79a91	0.0051148613
78	0xbd135b89	-0.035975967
79	0xbc9b4d7f	-0.018957851
80	0xbaf765a9	-0.0018874902
81	0xbd4014b7	-0.046894755
82	0xbc01ee12	-0.007930296
83	0xbce47133	-0.027886009
84	0x3d0675db	0.03282724
85	0x3bb33e56	0.0054700775
86	0x3b8a0a2a	0.0042126374
87	0x3b9c170c	0.0047634896
88	0x3ca1eccd	0.019766236
89	0xbd06a050	-0.03286773
90	0x3ce816a4	0.028331108
91	0xbbfbf6f9	-0.0076893535
92	0xbd4eb7f4	-0.0504684
93	0xbd37cb70	-0.044871747
94	0xbd522a12	-0.051309653
95	0x3d0d8e0f	0.034559306
96	0x3d28fbb6	0.041255675
97	0x3caa6ba7	0.020803286
98	0x3c719261	0.014744372
99	0x3d125e6d	0.035734583

fc2.weight f4 [50, 100]
0	0x3e80b976	0.25141495
1	0xbd9084cd	-0.0705658
2	0xbcfb6ad3	-0.030690586
3	0x3dce9dec	0.10088715
4	0xbd445f3b	-0.04794238
5	0xbe44851a	-0.19191399
6	0xbd9eb88c	-0.07750043
7	0xbe5b76d2	-0.21432045
8	0x3e1d57cb	0.15365522
9	0x3d1ead66	0.038739584
10	0xbe10ee4e	-0.14153406
11	0xbe1b727c	-0.15180391
12	0xbd05bcdd	-0.032650817
13	0x3d5a3418	0.053272337
14	0x3df4323c	0.11923644
15	0xbe4aadbc	-0.19792837
16	0xbeb5a2d0	-0.3547578
17	0xbdf680c4	-0.12036279
18	0x3e36fef6	0.17870697
19	0x3d450004	0.048095718
20	0x3dcf9116	0.10135095
21	0xbeb93220	-0.36171055
22	0xbda2047d	-0.07911012
23	0xbc871e1b	-0.016493848
24	0x3e24a6fd	0.16079326
25	0xbca38014	-0.019958533
26	0x3de517ce	0.11186181
27	0x3cbf63e3	0.02336306
28	0xbd131992	-0.035913058
29	0xbdbecc3d	-0.09316299
30	0x3c8ef0ce	0.017448809
31	0x3e37471b	0.17898218
32	0xbea3f52d	-0.32022992
33	0x3bbdc2e3	0.0057910546
34	0xbd12e892	-0.035866328
35	0x3dca2145	0.09869627
36	0xbe06f926	-0.1318098
37	0x3e1416bc	0.14461797
38	0x3ca1da58	0.019757435
39	0x3e853f0c	0.26024663
40	0x3e4a80c8	0.19775689
41	0xbd9b27c3	-0.07575943
42	0x3e109216	0.14118227
43	0xbe68b8ad	-0.22726698
44	0xbd6b8c81	-0.05750704
45	0x3e741cb5	0.23839076
46	0x3dc464f0	0.09589565
47	0xbe6694f9	-0.22517766
48	0x3e8d8683	0.27641687
49	0xbde7cd56	-0.113184616
50	0x3ce0e5b4	0.027453281
51	0xbe83ea48	-0.2576468
52	0xbd9a9ae9	-0.07549078
53	0x3e107a5a	0.14109173
54	0xbdcc969c	-0.09989664
55	0x3d5cf9b9	0.05394909
56	0x3e28336b	0.16425864
57	0x3e8ebe05	0.27879348
58	0xbdb4769a	-0.08811684
59	0xbd7621c9	-0.060090814
60	0x3eaf6b8b	0.34261736
61	0x3dbea69d	0.09309123
62	0xbe74b6a5	-0.23897798
63	0x3e5f5c0e	0.2181246
64	0xbd34bc57	-0.044124927
65	0xb8e4e4a5	-0.000109144756
66	0xbdd15c5f	-0.102226965
67	0xbe6a3cb1	-0.22874714
68	0x3ce594ef	0.028025119
69	0x3d6ba513	0.057530474
70	0x3e8bfa8d	0.27339593
71	0x3e651a30	0.22373271
72	0xbd89e19d	-0.067324854
73	0x3db39bd1	0.08769954
74	0xbd520239	-0.05127165
75	0xbe8cf5d5	-0.27531305
76	0x3e526e5e	0.20549914
77	0xbe72a2ff	-0.2369499
78	0x3dbfcc9c	0.09365198
79	0x3e7df323	0.2479978
80	0xbd889a79	-0.06670088
81	0x3d24d13e	0.04023861
82	0x3d8512f3	0.06497755
83	0xbd66c53c	-0.05634044
84	0xbe5b22f1	-0.21400048
85	0xbdfa8991	-0.1223327
86	0xbdb09495	-0.0862209
87	0xbd932399	-0.07184524
88	0xbe633b9a	-0.22190705
89	0x3eccb564	0.3998214
90	0x3dd3bf05	0.103391685
91	0x3e89b6fb	0.26897416
92	0x3da592b3	0.08084621
93	0x3d90be65	0.07067565
94	0xbe152c66	-0.14567718
95	0xbe305185	-0.17218597
96	0xbd06b8ba	-0.032891013
97	0xbcf9183c	-0.030407064
98	0xbeb399f1	-0.35078385
99	0x3eac99ef	0.33711192
100	0x3d578467	0.052616503
101	0xbc5ac6cc	-0.013353061
102	0xbe28b8c1	-0.16476728
103	0xbe16bb8c	-0.14719981
104	0x3d78cb29	0.060740624
105	0xbc184104	-0.009292845
106	0xbd0b89f8	-0.034067124
107	0xbe8744af	-0.2641959
108	0x3dc8e821	0.098099
109	0x3d905f18	0.07049388
110	0x3c978cc3	0.018499738
111	0xbe8b3168	-0.2718613
112	0xbe8b53d3	-0.2721239
113	0xbe548d0f	-0.20756935
114	0x3c25121d	0.010075119
115	0xbea0d1ec	-0.31410158
116	0xbe010b6c	-0.12602013
117	0x3d9e9d80	0.077448845
118	0x3ea7c09b	0.32764134
119	0x3da842e7	0.082158856
120	0x3e11f553	0.1425374
121	0xbe0e6dea	-0.13909116
122	0x3e06cf26	0.13164958
123	0xbb261ab1	-0.00253455
124	0x3e9dc111	0.3081136
125	0x3e783a86	0.24241075
126	0xbcb96783	-0.022632366
127	0x3d38c5f8	0.045110673
128	0xbd8813bd	-0.0664439
129	0x3dbc9c5c	0.09209511
130	0x3cdbf3fc	0.02684974
131	0x3e51b82b	0.20480411
132	0xbe88e830	-0.26739645
133	0x3e138b05	0.144085
134	0x3bb977cb	0.0056600324
135	0x3e6dffad	0.23242064
136	0xbe170f69	-0.14751972
137	0x3e4d5855	0.20053227
138	0x3c535ddb	0.012900795
139	0x3ea30f39	0.3184755
140	0xbdfab37f	-0.122412674
141	0xbe04290e	-0.12906286
142	0x3eb65e32	0.3561874
143	0xbe9f1120	-0.31067753
144	0xbe4e5fcb	-0.2015373
145	0x3d748fb3	0.059707355
146	0x3ec30619	0.3809059
147	0xbe83da15	-0.2575232
148	0x3e94bd46	0.29050654
149	0xbdf5d6f7	-0.12003892
150	0x3db2c9c2	0.087298885
151	0xbe75611f	-0.2396283
152	0xbdca9642	-0.09891941
153	0xbd9f7a9d	-0.077870585
154	0xbe3bb0ec	-0.18329209
155	0xbd3784e0	-0.044804454
156	0x3e3e0e68	0.18560183
157	0x3e44fb06	0.19236383
158	0xbe1285bb	-0.14308827
159	0xbd2d15bd	-0.04225706
160	0x3e9862f6	0.29763
161	0x3db05cde	0.08611463
162	0xbcc8a2bc	-0.02449166
163	0x3e1cf14f	0.15326427
164	0x3cf4a9d5	0.029866138
165	0xbe57e7bd	-0.21084495
166	0xbeb3697e	-0.35041422
167	0xbe2b322b	-0.16718356
168	0xbc67df2c	-0.014152329
169	0xbdaac295	-0.08337895
170	0x3e38c4e1	0.18043853
171	0x3cb316cb	0.021861454
172	0x3e8298da	0.2550724
173	0x3e1628df	0.14664029
174	0xbe5bd28a	-0.21467033
175	0xbe4ce9b3	-0.20011024
176	0x3e1c402f	0.15258859
177	0xbe5a00ab	-0.21289317
178	0xbdebf480	-0.11521244
179	0x3e8d0aab	0.27547202
180	0x3d3c472e	0.04596632
181	0x3ba3d848	0.005000148
182	0xbc4f3b1d	-0.012648371
183	0x3db06a25	0.086139955
184	0xbe14c455	-0.1452802
185	0x3cc0a5af	0.023516504
186	0xbdc95e14	-0.09832397
187	0xbdfae787	-0.122511916
188	0xbec3f61a	-0.38273698
189	0x3e6f9f1a	0.23400536
190	0x3e7137a2	0.23556378
191	0x3e95969a	0.29216462
192	0x3dc1acaf	0.09456765
193	0x3d4a1c74	0.04934354
194	0xbe62658e	-0.22109053
195	0xbea12a92	-0.3147779
196	0xbe30ebc6	-0.1727744
197	0x3d0156f7	0.031577077
198	0xbe8fa92d	-0.28058758
199	0x3e9c516c	0.3053087
200	0xbe875924	-0.26435196
201	0x3da82b03	0.08211329
202	0xbe050166	-0.12988815
203	0xbe2dd764	-0.16976696
204	0x3d6cec73	0.057842683
205	0xbdb21823	-0.0869601
206	0x3e15f446	0.14643964
207	0x3da133b0	0.07871187
208	0xbe84ae76	-0.25914353
209	0x3de3452e	0.11097179
210	0x3db769b7	0.089557104
211	0x3e90489b	0.28180394
212	0x3e3f4d66	0.18681869
213	0x3e56339b	0.20918123
214	0xbe0c15c5	-0.1368018
215	0x3df27109	0.11837966
216	0x3e83f196	0.25770253
217	0xbd5745ac	-0.05255668
218	0x3d8ed082	0.069733635
219	0xbe2d1fd7	-0.16906677
220	0xbe6ff527	-0.23433362
221	0x3ec52670	0.38505888
222	0xbdf912a3	-0.12161758
223	0xbd19a30e	-0.037509017
224	0xbe6bca48	-0.23026383
225	0xbd1ca5d5	-0.038244087
226	0x3de8c954	0.11366525
227	0xbcf9b458	-0.030481502
228	0x3e3720c4	0.17883593
229	0x3c863222	0.016381327
230	0x3e3535a8	0.1769625
231	0xbe1b6788	-0.15176213
232	0x3e0da210	0.13831353
233	0xbe49ad89	-0.19695105
234	0x3e21b51f	0.15791748
235	0xbd82b521	-0.06382204
236	0x3e448ca2	0.19194272
237	0xbe65aa46	-0.22428235
238	0xbdf304db	-0.118661605
239	0x3c80a864	0.015705295
240	0xbde96030	-0.113952994
241	0x3c8ab392	0.016931329
242	0xbe3b6d6e	-0.18303463
243	0x3e667233	0.22504501
244	0x3e832a93	0.2561842
245	0xbe8607d2	-0.2617784
246	0xbe00c7fb	-0.12576286
247	0x3e2bb867	0.16769563
248	0xbe337c0b	-0.17527787
249	0x3b877695	0.004134009
250	0xbbed7656	-0.0072467728
251	0x3e0e794e	0.13913462
252	0x3de33d8d	0.11095724
253	0xbde0f03c	-0.10983321
254	0x3e828bcb	0.2549728
255	0xbdffb367	-0.1248539

fc2.bias f4 [50]
0	0xbdf08160	-0.11743426
1	0x3db62ae8	0.088949025
2	0x3d80ad9a	0.06283112
3	0xbd8bd754	-0.0682818
4	0xbc98182a	-0.01856621
5	0x3c69d4b0	0.0142719
6	0xbcaf6c77	-0.021414025
7	0xbbbb1cc5	-0.0057102167
8	0x3dcc50c0	0.09976339
9	0x3c91f469	0.01781674
10	0xbdd39e86	-0.1033297
11	0xbd3c5837	-0.045982566
12	0x3be17d40	0.006881386
13	0x3aaca7cf	0.001317257
14	0xb9d78d37	-0.0004111321
15	0x3d1508cf	0.036385354
16	0xbda66730	-0.0812515
17	0xbc53983c	-0.0129147135
18	0x3d4cb40d	0.049976397
19	0x3d43cfe6	0.04780569
20	0xbd61172e	-0.054953746
21	0xbd190884	-0.037361637
22	0xbd1bf57c	-0.03807591
23	0xbc5832d9	-0.013195717
24	0x3d99e9d8	0.07515305
25	0x3ceb6e52	0.028739128
26	0x3d6c7eb7	0.057738032
27	0xbc2e61c4	-0.010643426
28	0x3da3dfea	0.080016926
29	0xbdbdcdf4	-0.09267798
30	0x3c9687e6	0.018375348
31	0x3dd87499	0.10569114
32	0xbd243d97	-0.0400978
33	0xbbc914c2	-0.0061365077
34	0x3c8ebd85	0.017424354
35	0x3ce8591d	0.028362805
36	0x3d8c640d	0.06855021
37	0x3caa5413	0.020792043
38	0xbd4415f0	-0.047872484
39	0xbcb9dd1e	-0.022688445
40	0xbd373cc9	-0.044735704
41	0x3d649f93	0.055816244
42	0x3d73ebc1	0.059551004
43	0x3c9cbacd	0.019132042
44	0xbd390ae3	-0.045176398
45	0x3d01b0aa	0.03166262
46	0x3cff3fc6	0.03115834
47	0xbd5f878a	-0.05457262
48	0xbdb3bfd8	-0.08776826
49	0x3d383655	0.04497369

fc3.weight f4 [200, 50]
0	0xbe1571be	-0.1459417
1	0x3d1297a3	0.035789143
2	0x3dc97531	0.098368056
3	0x3dc4c95d	0.096087195
4	0x3b92c0e1	0.0044785594
5	0xbdf760a3	-0.12078979
6	0xbe023ab4	-0.12717706
7	0xbde5937b	-0.1120977
8	0xbddd1406	-0.10794835
9	0x3dd7a599	0.10529632
10	0x3d6662db	0.05624662
11	0x3d5f44a4	0.05450882
12	0xbe1be65b	-0.15224592
13	0x3db3ae58	0.08773488
14	0xbd653f46	-0.055968545
15	0xbe13d107	-0.14435206
16	0xbd4d4d8e	-0.05012279
17	0xbda79d9d	-0.08184359
18	0xbe158b3b	-0.14603893
19	0xbdc315d8	-0.09525651
20	0xbdc73fd6	-0.097289726
21	0xbe1d2039	-0.15344323
22	0xbcba6711	-0.022754224
23	0xbe097d4c	-0.13426703
24	0xbca97632	-0.020686243
25	0xbe3033ed	-0.17207308
26	0xbd8f3b13	-0.069936894
27	0x3d284eeb	0.041090887
28	0x3da0f930	0.07860029
29	0xbcd5ebab	-0.026113352
30	0x3c983096	0.018577855
31	0xbe046fa2	-0.1293321
32	0x3d45fc9e	0.048336618
33	0xbc0b03a8	-0.008484758
34	0xbd7f661a	-0.06235323
35	0xbcb26e8f	-0.021781234
36	0x3dcaa4c8	0.09894711
37	0x3dc45850	0.09587157
38	0xbe320c33	-0.17387466
39	0xbe0c56bc	-0.13704962
40	0x3d8cbbe0	0.06871772
41	0xbc6a36ba	-0.014295274
42	0xbdfb16d0	-0.122602105
43	0xbd30ab22	-0.043131955
44	0xbda15780	-0.078780174
45	0x3bac6fb9	0.005262342
46	0x3d9d8776	0.07691853
47	0xbd8a4008	-0.06750494
48	0x3c982508	0.018572345
49	0xbd62ac15	-0.05533989
50	0x3d2f6306	0.042819045
51	0xbdf44990	-0.119280934
52	0xbc5cb67d	-0.013471243
53	0xbc683cb6	-0.014174631
54	0xbe0ca241	-0.1373377
55	0x3da572d9	0.08078546
56	0xbd9087e1	-0.07057167
57	0x3d5ff02c	0.054672405
58	0xbbf9079d	-0.0075997845
59	0x3e16a82c	0.1471259
60	0x3d57f1c3	0.052720796
61	0xbe2b10df	-0.16705655
62	0x3da2f772	0.07957353
63	0xbd0c4cbf	-0.03425288
64	0xbd630ad2	-0.05543024
65	0xbdeb6b21	-0.114950426
66	0x3c28e3f6	0.010308256
67	0x3df151fd	0.11783216
68	0x3d5d7da1	0.054074887
69	0xbd5d5404	-0.0540352
70	0xbd8c2c54	-0.068443924
71	0xbcc99d30	-0.024611086
72	0x3d2de424	0.0424539
73	0xbd8f7dd4	-0.07006422
74	0x3d80d700	0.06291008
75	0xbe149c75	-0.14512809
76	0x3cfe8ba3	0.031072443
77	0x3e29f6cd	0.16598053
78	0x3d68e13f	0.056855436
79	0xbe2c2c79	-0.1681384
80	0x3e0c4012	0.13696316
81	0x3d327a2a	0.043573536
82	0xbddaa71b	-0.10676404
83	0xbe14b60a	-0.14522567
84	0xbda3b4eb	-0.07993492
85	0xbe23aab3	-0.15983085
86	0xbe02d4e3	-0.12776522
87	0x3dc2caf6	0.09511368
88	0xbe842f94	-0.2581755
89	0xbcadebdf	-0.021230636
90	0x3d58dc54	0.052944496
91	0xbd66cf74	-0.056350186
92	0x3b1fb11f	0.0024367047
93	0xbd57776e	-0.05260413
94	0x3d80b25b	0.062840186
95	0x3cfd3bb8	0.030912265
96	0xbd424f1f	-0.047438737
97	0xbd2c393e	-0.042046778
98	0xbe4e84ea	-0.2016789
99	0xbe0bf973	-0.13669376
100	0x3e693706	0.22774896
101	0x3e8c47fd	0.27398673
102	0xbe79979c	-0.2437424
103	0x3ccc1d8f	0.024916438
104	0x3dbdccd3	0.09267583
105	0xbdb06a8a	-0.08614071
106	0xbcac5e41	-0.021041038
107	0x3bb5bba4	0.00554605
108	0xbd5b527a	-0.053545453
109	0xbe071472	-0.13191393
110	0x3d84cc91	0.064843304
111	0x3e8c2a9e	0.27376264
112	0x3d9b61c5	0.075870074
113	0xbdcb5c7a	-0.09929748
114	0x3d2244df	0.03961646
115	0x3d99bb4f	0.075064294
116	0xbdd9fbcc	-0.106437296
117	0xbd8688bf	-0.06569051
118	0x3ce1053b	0.027468314
119	0x3daceb44	0.08443311
120	0x3dbfd481	0.09366704
121	0x3d8c5289	0.0685168
122	0xbe14353b	-0.14473431
123	0x3d09ad8c	0.033612773
124	0xbe7207dc	-0.2363581
125	0x3c0f0793	0.008729833
126	0xbd371b7e	-0.044703953
127	0xbec1e0ed	-0.37866917
128	0xbd669716	-0.05629643
129	0xbd5f6fa6	-0.054549836
130	0xbdc57747	-0.09641891
131	0xbe037fc1	-0.12841703
132	0x3e3b9823	0.18319754
133	0x3d8d2bc3	0.068931125
134	0x3d478c64	0.04871787
135	0x3e2c40c8	0.16821587
136	0x3d751e2f	0.05984324
137	0xbe3ddf10	-0.18542123
138	0x3eb77c92	0.35837227
139	0x3ce6e957	0.028187437
140	0xbe27dfac	-0.16393918
141	0xbea2891b	-0.31745228
142	0xb91fd194	-0.00015241496
143	0xbdf36c24	-0.118858606
144	0x3e28c5a1	0.1648164
145	0x3c5fb726	0.013654506
146	0x3d819d05	0.06328777
147	0xbd6281fe	-0.05529975
148	0x3e2a5549	0.16634096
149	0xbc4bb8f7	-0.012434236
150	0x3d94c69d	0.07264445
151	0x3dd79a26	0.10527448
152	0xbe471f5d	-0.19445558
153	0x3d4d0a98	0.05005893
154	0xbca44ad7	-0.020055218
155	0x3ca744b8	0.02041851
156	0x3cda992a	0.026684362
157	0xbd605f93	-0.054778647
158	0xbc0bbf63	-0.008529517
159	0x3d916cff	0.071008675
160	0x3db790dc	0.089631766
161	0x3bf67d57	0.007522266
162	0x3d842963	0.064532064
163	0x3d15a059	0.036529873
164	0xbe1977bc	-0.14987081
165	0xbcb7bf69	-0.022430139
166	0x3d551a0b	0.05202679
167	0xbe12c3d3	-0.14332514
168	0xbd97ec3c	-0.07418105
169	0xbdcfaf11	-0.10140813
170	0xbd369802	-0.04457856
171	0x3adfaef4	0.001706569
172	0x3d2c70fc	0.042099938
173	0xbdda469a	-0.106579974
174	0xbd025c7f	-0.031826492
175	0xbd25e792	-0.040504046
176	0xbc42ec42	-0.011897149
177	0xbe17ece5	-0.14836462
178	0x3cef10e3	0.029182857
179	0xbc7bc883	-0.01536763
180	0x3d4b9611	0.04970366
181	0xbcda4dc1	-0.026648404
182	0xbdae75f3	-0.08518591
183	0x3e0ae2a9	0.13563026
184	0x3d4d43cf	0.050113495
185	0x3de31dcf	0.1108967
186	0x3d49dc48	0.049282342
187	0x3bfdc114	0.007743964
188	0x3e018e96	0.12652048
189	0xbd23361d	-0.03984653
190	0xbda8dda4	-0.082453996
191	0xbe086009	-0.13317885
192	0x3c873b9a	0.016507912
193	0x3d1b00eb	0.037842672
194	0x3d425083	0.047440063
195	0x3cc8b3b0	0.024499744
196	0x3db2d087	0.0873118
197	0x3c8a269a	0.01686411
198	0x3df7bf76	0.12097065
199	0xbd8d1d12	-0.0689031
200	0xbe370cbd	-0.17875953
201	0xbe02992f	-0.12753747
202	0xbdd9e2cd	-0.10638962
203	0x3da537cf	0.08067285
204	0xbe3389be	-0.17533013
205	0x3dc3ff6f	0.095702045
206	0x3dd0d1f9	0.10196299
207	0x3dd5be66	0.10436706
208	0x3de0acb1	0.10970438
209	0xbd67bc5f	-0.05657613
210	0xbc336451	-0.01094921
211	0xbd4eb6eb	-0.050467413
212	0x3d39d473	0.045368623
213	0xbd0c9ba9	-0.034328137
214	0x3d3d14a3	0.04616226
215	0x3d1c1de4	0.038114443
216	0x3cf329be	0.02968299
217	0xbd6079af	-0.054803547
218	0x3d761bd8	0.060085148
219	0x3d21a5e7	0.039464857
220	0xbddff0d8	-0.10934609
221	0x3dada3a7	0.0847848
222	0xbc942965	-0.018086145
223	0x3dc2ec09	0.095176764
224	0xbd317faf	-0.04333466
225	0xbe0f4ad9	-0.13993396
226	0xbd92df0e	-0.071714506
227	0x3c9d8ccf	0.019232182
228	0x3d700f7d	0.05860852
229	0xbd9fefe3	-0.07809427
230	0x3cdea578	0.027178511
231	0xbacb4d44	-0.0015510698
232	0xbd8e3fcc	-0.06945762
233	0x3d895f74	0.06707659
234	0x3b339ec9	0.0027407876
235	0xbda032dc	-0.07822201
236	0xbc19fe06	-0.009398943
237	0xbda774a5	-0.08176545
238	0xbe259225	-0.16169031
239	0xbd24e160	-0.040253997
240	0xbdc6355c	-0.09678146
241	0xbd618d70	-0.055066526
242	0xbe0555ee	-0.13021061
243	0xbe2b5912	-0.16733196
244	0x3d88dc43	0.066826366
245	0xbdd4df5b	-0.10394164
246	0xbe0cf440	-0.13765049
247	0x3d04dd73	0.032437753
248	0x3da522ef	0.08063304
249	0x3ddb9d07	0.1072331
250	0x3d9b24bd	0.07575367
251	0x3e01e6f6	0.12685761
252	0xbd1f6b03	-0.038920414
253	0x3c33f647	0.01098401
254	0x3d79c593	0.060979437
255	0xbc356f06	-0.011073833

fc3.bias f4 [200]
0	0x3d4a8972	0.049447484
1	0x3dca412f	0.09875714
2	0xbce6872b	-0.028140625
3	0xbd26b31e	-0.040698163
4	0x3d93f692	0.07224764
5	0xbd9089c7	-0.07057529
6	0xbda6d935	-0.08146898
7	0xbd8f61ee	-0.070011005
8	0xbdb3f565	-0.0878704
9	0xbdb5af3f	-0.08871316
10	0xbdfe40d7	-0.12414711
11	0xbe04a46d	-0.12953348
12	0x3d17eeaf	0.03709286
13	0xbd99792f	-0.07493817
14	0xbc61f997	-0.013792417
15	0xbd864ec3	-0.06557991
16	0xbd153ff4	-0.036437944
17	0xbde18b0e	-0.11012851
18	0xbd033079	-0.03202865
19	0xbc3ccfde	-0.011524169
20	0xbe2d5e6d	-0.16930552
21	0xbc8fe2d1	-0.01756421
22	0xbd0fbe36	-0.03509351
23	0x3d9e8d14	0.07741752
24	0xbcc5e705	-0.02415801
25	0xbe1858c7	-0.14877616
26	0xbd8907b0	-0.066909194
27	0xbe08f5f1	-0.13375069
28	0xbdb1b1ba	-0.08676477
29	0x3da7ca5f	0.08192896
30	0xbe300167	-0.17188035
31	0xbda39b27	-0.07988577
32	0x3caeefcc	0.021354578
33	0xbe2750e2	-0.16339448
34	0x3da4b2ad	0.08041892
35	0x3de4343a	0.11142774
36	0x3d21bc6c	0.039486334
37	0xbd5b5797	-0.05355033
38	0x3d4a6fb6	0.049422942
39	0xbd997f7d	-0.074950196
40	0x3dc54001	0.096313484
41	0x3d047012	0.03233344
42	0xbd425b4e	-0.047450356
43	0xbd9d7b84	-0.07689574
44	0xbd166552	-0.03671772
45	0xbde5b9cf	-0.11217081
46	0x3d57da31	0.052698318
47	0x3cf4e5f4	0.029894806
48	0x3de8e5af	0.11371934
49	0x3bd16f7e	0.0063914647
50	0x3daccd2f	0.08437573
51	0xbd91d67f	-0.0712099
52	0x3d8c5049	0.06851251
53	0xbe127987	-0.14304172
54	0xbd9c2c50	-0.076256394
55	0xbe033623	-0.1281362
56	0x3ddda744	0.10822919
57	0x3c9918d3	0.018688595
58	0x3c0499aa	0.008093277
59	0xbc9e974d	-0.019359255
60	0xbdf2e9e4	-0.11861017
61	0xbd0de177	-0.03463885
62	0xbe22356d	-0.15840693
63	0x3dba4add	0.0909631
64	0xbe243fb4	-0.16039926
65	0xbd68b599	-0.05681381
66	0xbdb35c3e	-0.08757828
67	0xbd74183e	-0.05959343
68	0x3dbde7e0	0.09272742
69	0x3bb19208	0.0054190196
70	0x3b0090f4	0.0019617649
71	0xbca195a0	-0.019724667
72	0x3d57f14c	0.052720353
73	0x3da311b4	0.07962361
74	0x3d7242b6	0.05914565
75	0xbdaa0c7c	-0.083031625
76	0xbd5533bd	-0.052051295
77	0xbe118310	-0.14210153
78	0xbd6d7319	-0.057971094
79	0x3ac51406	0.0015035875
80	0xbd426a23	-0.0474645
81	0x3db77beb	0.08959182
82	0x3dabe1ff	0.08392715
83	0xbe250407	-0.16114818
84	0xbd93d09b	-0.07217523
85	0x3d64e16f	0.055879053
86	0xbe2c8875	-0.16848929
87	0x3cec2850	0.028827816
88	0xbce6fc4e	-0.02819648
89	0xbe256cd2	-0.16154793
90	0xbbd06d2f	-0.006360672
91	0xbd82ed69	-0.06392939
92	0x3d850d4f	0.06496679
93	0xbc9be45f	-0.019029794
94	0xbd5a4402	-0.053287514
95	0xbd929a1a	-0.07158299
96	0x3da2196d	0.07915006
97	0x3cdd46ab	0.027011236
98	0x3df74310	0.12073338
99	0xbdaa6190	-0.0831939
100	0xbdf22f0d	-0.118253805
101	0x3d5973da	0.053089
102	0xbdf57631	-0.11985434
103	0xbe0ec8ac	-0.13943738
104	0xbd94298e	-0.072344884
105	0xbd806981	-0.06270123
106	0xbe3b6da9	-0.18303551
107	0x3d90f761	0.07078434
108	0xbdedc0a2	-0.116090074
109	0xbca77d1a	-0.020445395
110	0xbda139af	-0.078723304
111	0xbdd64103	-0.10461619
112	0xbda67192	-0.081271306
113	0xbcdfc2e2	-0.027314607
114	0xbddeb9b0	-0.10875261
115	0x3d8b2c97	0.06795614
116	0xbd8e6e20	-0.069545984
117	0x3c0e46c6	0.008683866
118	0x3c7b450b	0.015336285
119	0xbcb68b7b	-0.022283306
120	0xbdd97e4f	-0.106197946
121	0xbdb624bc	-0.08893725
122	0x3da4219a	0.080142215
123	0xbe0e11d5	-0.1387399
124	0x3dd2b201	0.10287858
125	0xbd2d4c93	-0.042309355
126	0xbda871fc	-0.08224866
127	0x3c3dcbd5	0.011584242
128	0xbd06ef28	-0.03294292
129	0xbe0a8767	-0.13528214
130	0xbdbf193f	-0.09330987
131	0x3d784a2e	0.06061762
132	0xbe180d5d	-0.14848848
133	0xbdf36a45	-0.11885504
134	0xbcbb6997	-0.022877498
135	0x3da42d64	0.0801647
136	0x3d9cf6a7	0.07664233
137	0xbdbf95c8	-0.093547404
138	0x3dae646f	0.0851525
139	0xbe0ef9b0	-0.13962436
140	0xbd8a8bed	-0.0676497
141	0xbdd9d4e6	-0.1063631
142	0x3e1e80f1	0.15478875
143	0x3dbbfdc8	0.09179264
144	0x3d768b95	0.06019171
145	0xbd5da38e	-0.054111056
146	0x3d05da71	0.032679025
147	0xbd5bd19f	-0.053666707
148	0x3d78ff80	0.06079054
149	0xbc91221f	-0.017716466
150	0x3ce951dd	0.028481418
151	0xbdd49338	-0.10379642
152	0xbdd22ff1	-0.1026305
153	0xbddec348	-0.10877091
154	0xbde355e7	-0.11100369
155	0xbdf7c86e	-0.12098776
156	0xbe37122c	-0.17878026
157	0x3d307d24	0.043088093
158	0xbdf9c548	-0.121958315
159	0xbddd7507	-0.10813337
160	0x3b3ab078	0.0028486531
161	0x3dcc8459	0.09986181
162	0xba190bc7	-0.0005838242
163	0xbd1605e6	-0.03662672
164	0x3dd1a18e	0.10235892
165	0x3cf9dce7	0.030500842
166	0xbe23365c	-0.15938705
167	0xbe1f9ae1	-0.15586425
168	0xbe10b95d	-0.1413321
169	0xbe01352f	-0.12617944
170	0xbd48af0b	-0.04899506
171	0xbd9a05a0	-0.07520604
172	0x3de6a250	0.112614274
173	0x3d27af2e	0.04093855
174	0x3d8cf6ff	0.06883048
175	0xbd52ae19	-0.051435564
176	0x3db080dd	0.08618329
177	0x3dac74d0	0.08420718
178	0xb9919951	-0.00027770785
179	0xbd313d1d	-0.043271173
180	0xbb774103	-0.003772796
181	0x3db55fde	0.08856176
182	0xbb8737a3	-0.0041265055
183	0x3de051a5	0.109530725
184	0x3da62116	0.081117794
185	0x3ca8435e	0.020539936
186	0x3ddb14c0	0.10697317
187	0xbd918d99	-0.07107086
188	0xbddbc155	-0.107302345
189	0xbe0fd6d7	-0.14046799
190	0x3dd7360b	0.10508355
191	0xbda507ca	-0.08058126
192	0xbe2e11a0	-0.16998911
193	0x3c4d35a7	0.012524999
194	0xbdf8f41e	-0.12155937
195	0xbc206a07	-0.009790904
196	0xbd4d1275	-0.05006643
197	0xbe258d4a	-0.16167179
198	0xbc9490b1	-0.0181354
199	0x3d8cc8f7	0.068742685

fc4.weight f4 [2, 200]
0	0xbdda28eb	-0.10652336
1	0xbe70be44	-0.2351008
2	0x3f2290fb	0.6350247
3	0x3e34aa6f	0.1764314
4	0xbd84bccb	-0.06481322
5	0x3df606bc	0.12013003
6	0x3e3a724d	0.18207665
7	0xbe2c07c7	-0.16799842
8	0xbeb52975	-0.35383192
9	0x3eae6496	0.34061116
10	0x3de6caf7	0.11269181
11	0x3dc2951e	0.09501098
12	0x3cc1060c	0.023562454
13	0x3f03279b	0.5123231
14	0x3e3b87ee	0.18313572
15	0x3e50653b	0.20351116
16	0xbe0eabf0	-0.13932776
17	0xbd1c6f0d	-0.038191844
18	0xbe680616	-0.22658572
19	0xbece6ab8	-0.40315795
20	0xbe81188f	-0.2521405
21	0xbccb9b8b	-0.024854442
22	0x3bd50268	0.006500531
23	0x3e66e9f7	0.22550188
24	0x3ebe2b1d	0.37142268
25	0x3f04cddc	0.51876616
26	0xbd0e71a1	-0.034776334
27	0x3e079c63	0.1324325
28	0x3de9ae36	0.11410181
29	0xbc5c9182	-0.013462426
30	0x3d9d7d51	0.07689918
31	0x3e6096ce	0.21932527
32	0x3dbf8359	0.093512245
33	0x3da9b37d	0.08286188
34	0xbf406cc4	-0.75165963
35	0x3e915f10	0.2839284
36	0xbf0538f9	-0.5204006
37	0xbe2b38e9	-0.16720928
38	0x3eecc2af	0.46242282
39	0xbe4122b6	-0.18860897
40	0xbeb12b9a	-0.34603578
41	0xbf4a0893	-0.78919333
42	0x3d6ac58f	0.057317313
43	0x3c6859d6	0.014181575
44	0x3ef0ab55	0.47005716
45	0x3e07112e	0.13190147
46	0x3ee5ad12	0.44858605
47	0xbbaccae7	-0.0052732113
48	0x3c605dd3	0.013694244
49	0xbea8c0ad	-0.329595
50	0xbdff52aa	-0.12466939
51	0xbce10346	-0.027467381
52	0x3ca87855	0.020565191
53	0xbc8bd483	-0.017069107
54	0x3d5d11a0	0.053971887
55	0x3f18b725	0.59654456
56	0x3e263c96	0.16234049
57	0xbe0b3142	-0.13593009
58	0x3d50717d	0.05088948
59	0xbe290749	-0.16506685
60	0x3e09ae92	0.134455
61	0xbeb7f316	-0.35927647
62	0xbd498a45	-0.04920413
63	0xbe8762e0	-0.26442623
64	0x3d562de5	0.052289862
65	0xbf00468d	-0.5010765
66	0xbdf7010d	-0.12060747
67	0x3f014c01	0.505066
68	0xbe1f65cf	-0.1556618
69	0xbe444e60	-0.19170523
70	0xbe163036	-0.14666829
71	0x3dfa9286	0.122349784
72	0xbede5452	-0.43423706
73	0xbe743dc7	-0.23851691
74	0xbca8fe42	-0.020629052
75	0x3d8476ff	0.06468009
76	0x3e90c04d	0.28271714
77	0x3dfc825a	0.1232955
78	0xb9ff2a2e	-0.00048668816
79	0xbcec1683	-0.028819328
80	0x3e8d37b9	0.27581576
81	0x3d07699b	0.033059698
82	0x3de3f0e0	0.11129928
83	0xbbc7a0e3	-0.0060921772
84	0x3d71fc50	0.059078515
85	0xbea815fd	-0.32829276
86	0xbe15e6c3	-0.1463881
87	0x3f009f80	0.5024338
88	0xbe986783	-0.29766473
89	0x3d26fbb0	0.04076737
90	0x3dc24657	0.094860725
91	0x3ee20864	0.44147027
92	0x3eb52038	0.35376143
93	0xbe721f44	-0.2364474
94	0xbc0c8497	-0.008576534
95	0x3e8f58cc	0.27997434
96	0xbe92a1ee	-0.28639168
97	0x3ec89a48	0.39180207
98	0xbe30a258	-0.17249429
99	0x3d9dc5f8	0.07703775
100	0xbe8715c3	-0.2638379
101	0x3ee1e06a	0.44116527
102	0xbef69578	-0.4816091
103	0xbcc6719d	-0.024224097
104	0x3f0f72ce	0.56034553
105	0xbe93d531	-0.2887359
106	0xbe17736b	-0.14790122
107	0xbbbfd92f	-0.0058547477
108	0xbedbfd08	-0.42966485
109	0x3d63b168	0.05558911
110	0x3cb920f0	0.022598714
111	0x3f383091	0.71949106
112	0xbe8308a3	-0.25592527
113	0xbe466f19	-0.19378318
114	0x3d45d3e0	0.048297763
115	0x3f157a73	0.5838997
116	0x3dc87c83	0.09789374
117	0x3d845f0d	0.06463442
118	0xbcbbb976	-0.022915583
119	0x3e3d0693	0.18459539
120	0x3ded9a38	0.116016805
121	0x3e59c1c8	0.21265328
122	0xbec2b35c	-0.38027465
123	0x3e758a24	0.23978478
124	0x3f044ae5	0.5167678
125	0xbec16ffa	-0.37780744
126	0x3d64c24b	0.055849355
127	0xbbc333c8	-0.0059571005
128	0xbed6f014	-0.4198004
129	0xbe8ff024	-0.281129
130	0xbe8af685	-0.27141204
131	0x3d399f0c	0.045317695
132	0x3b4a408f	0.0030861234
133	0xbd9d7d8b	-0.07689961
134	0x3d67041d	0.056400407
135	0x3e6fb092	0.234072
136	0xbd8fb596	-0.07017057
137	0x3db18096	0.08667104
138	0xbe650eaa	-0.22368875
139	0x3eaaa2b2	0.33327252
140	0x3de5b371	0.11215866
141	0x3de779c9	0.113025256
142	0xbf159391	-0.58428293
143	0xbeb4d234	-0.35316622
144	0x3e3a45a0	0.18190622
145	0x3d259b53	0.04043133
146	0xbf1fa137	-0.6235537
147	0xbe707813	-0.23483305
148	0x3dd80047	0.10546928
149	0xbddac3ff	-0.106819145
150	0xbe986710	-0.2976613
151	0x3e739d59	0.23790492
152	0x3ca90cfd	0.020636076
153	0xbe3a2bc8	-0.18180764
154	0x3e7369ad	0.23770781
155	0xbdf1b7bd	-0.118026234
156	0x3e30439f	0.17213295
157	0xbdaffdb6	-0.085933134
158	0xbe790eb4	-0.24322015
159	0xbf014184	-0.50490594
160	0x3d7afa26	0.061273716
161	0xbf2140a3	-0.6298925
162	0xbdf4ecc8	-0.11959225
163	0x3c64acd2	0.013957219
164	0xbe1e41e8	-0.15454829
165	0x3db24d2f	0.08706128
166	0xbdefe399	-0.11713333
167	0x3d2fd52d	0.04292791
168	0xbc0d85f5	-0.008637895
169	0xbdd4c24c	-0.10388622
170	0xbeeb964a	-0.460131
171	0xbefd36bd	-0.49455824
172	0x3cc6a01d	0.02424627
173	0xbe79e244	-0.2440272
174	0x3e183b87	0.14866458
175	0x3e8fd1d3	0.2808977
176	0xbf005256	-0.50125635
177	0x3ead34be	0.33829302
178	0xbee60a2c	-0.44929636
179	0x3eb4ce1f	0.35313508
180	0xbe898283	-0.26857385
181	0x3cdaee39	0.026724922
182	0xbbe1be0c	-0.0068891104
183	0x3e176a1e	0.14786574
184	0xbe9f3541	-0.31095317
185	0x3ee6fd4a	0.4511512
186	0x3d9a548e	0.07535659
187	0xbe6e2572	-0.23256472
188	0x3e916ccd	0.2840332
189	0x3dd2e8ac	0.10298285
190	0x3e0be905	0.13663109
191	0xbc78d57d	-0.015187618
192	0xbed84960	-0.4224348
193	0xbef41bf6	-0.47677583
194	0xbc8bfecd	-0.017089272
195	0x3f2f6895	0.68518955
196	0xbd8e2c2c	-0.06942019
197	0x3e89d9ae	0.2692389
198	0x3d93728a	0.07199581
199	0xbe6075b9	-0.21919908
200	0x3d5e48ae	0.05426853
201	0x3ea9164d	0.33024827
202	0xbf243dd3	-0.64156836
203	0xbe3ca660	-0.18422842
204	0x3dbadb56	0.09123866
205	0xbe50390c	-0.20334262
206	0xbe1dba39	-0.1540307
207	0x3e202f80	0.1564312
208	0x3e8a528c	0.27016103
209	0xbebc3741	-0.36760905
210	0xbd0f7dce	-0.035032086
211	0xbe2f51c5	-0.17121036
212	0x3da63791	0.08116067
213	0xbec1ff21	-0.3788996
214	0xbe6ac438	-0.22926414
215	0xbe222f0b	-0.15838258
216	0x3e50155d	0.2032065
217	0x3db75420	0.089515924
218	0x3e893be3	0.26803502
219	0x3eda7c87	0.42673132
220	0x3e21fee3	0.15819888
221	0xbb8fca5a	-0.004388136
222	0xbb76a49b	-0.0037634734
223	0xbdfbf542	-0.123026386
224	0xbec89a9d	-0.3918046
225	0xbee310b3	-0.44348678
226	0x3acbe5ad	0.001555612
227	0xbddc76a8	-0.107648194
228	0xbe3709da	-0.17874852
229	0xbdd445e4	-0.10364893
230	0xbd21ce8a	-0.03950361
231	0xbe87be75	-0.26512495
232	0xbdcd9330	-0.100378394
233	0xbdf470b3	-0.11935558
234	0x3f3eb4de	0.7449473
235	0xbe7951da	-0.2434763
236	0x3f06d08c	0.5266197
237	0x3e1e5e3b	0.15465634
238	0xbef29c54	-0.47384894
239	0x3e8e91e0	0.2784567
240	0x3e8510e4	0.2598945
241	0x3f46de5b	0.7768304
242	0xbd4900f6	-0.049073182
243	0xbdd241f9	-0.102664895
244	0xbee5efa3	-0.4490939
245	0xbd6e50a6	-0.05818238
246	0xbeea8d2b	-0.45810828
247	0x3dadab2e	0.084799156
248	0xbd4f0ea4	-0.05055107
249	0x3ec741b1	0.38917306
250	0x3e0e9b30	0.13926387
251	0xbd27e1bc	-0.04098676
252	0xbdc179e1	-0.09447075
253	0x3c069919	0.008215212
254	0xbcb1935a	-0.021676708
255	0xbf1445f9	-0.5791927

fc4.bias f4 [2]
0	0x3d62a014	0.055328444
1	0xbd748f72	-0.059707113
